SilverstoneModelv1.pkl (torch, 501322 bytes, 16 tensors)

weight f4 [9, 10]
0	0xbfa12d26	-1.2591903
1	0xbea1194e	-0.31464618
2	0x3f9efdda	1.2421219
3	0xbec68248	-0.38771272
4	0xbe0c6db9	-0.13713731
5	0xbe80a6b4	-0.25127184
6	0xbf6a9352	-0.9163104
7	0x3f35c68c	0.71006083
8	0xbdf89204	-0.12137225
9	0x3eb12d7e	0.3460502
10	0xbfcb5693	-1.5885795
11	0xbfb781c3	-1.4336475
12	0x3f28a78a	0.65880644
13	0xbe797a3a	-0.24363032
14	0x3c69e93c	0.014276799
15	0xbfcae83b	-1.5852121
16	0xbec5eb0d	-0.38655892
17	0x3f3b4704	0.73155236
18	0xbf353181	-0.7077866
19	0x3e8b6a80	0.2722969
20	0x3df50da2	0.11965491
21	0xbff4301d	-1.9077183
22	0x3ed30d09	0.41220883
23	0x3f6d6d62	0.9274503
24	0xbf312e1b	-0.69210976
25	0xbf69302d	-0.91089135
26	0xbe42b11c	-0.19012874
27	0xbf6c4fe3	-0.923094
28	0x3ea03668	0.3129151
29	0xbe8bb4fd	-0.2728652
30	0xbf49058c	-0.7852409
31	0xbfd4c76a	-1.6623356
32	0x3fb6e628	1.4288988
33	0x3eeeb1c5	0.46620002
34	0x3e0ed3f1	0.13948037
35	0x3e9c875b	0.30572018
36	0x4004b0b1	2.0732844
37	0x3fcd98e2	1.6062281
38	0x3f57ae3a	0.84250224
39	0xbedbf7d7	-0.42962524
40	0xbdab1013	-0.08352675
41	0xbd1c6b9f	-0.038188573
42	0xbf2f0017	-0.6835951
43	0xbeabea0d	-0.33577004
44	0xc018a5ba	-2.3851151
45	0xbee7c6f2	-0.4526897
46	0x3f653cc2	0.89545834
47	0x3f52c766	0.8233551
48	0x400344d1	2.0510752
49	0x3fde3ea5	1.7362868
50	0xbf11fe6e	-0.57028854
51	0x3f265d61	0.64986235
52	0x3eb76bf2	0.35824543
53	0xbf893cea	-1.0721714
54	0xbfbe1697	-1.4850644
55	0xbf5b426f	-0.85648245
56	0x3ebc1201	0.36732486
57	0x3e95653b	0.29178795
58	0x3ea45531	0.32096246
59	0xbf30f932	-0.6913024
60	0xbc01e9ba	-0.00792926
61	0xbf3c35d6	-0.7351965
62	0x3e5f30b2	0.2179592
63	0xbe999ea3	-0.30003843
64	0x3f3be5c5	0.73397475
65	0xbe70ec4f	-0.23527645
66	0xbe292f46	-0.1652194
67	0xbfaab62e	-1.3336847
68	0x3fd57110	1.6675129
69	0xbf5c9add	-0.861738
70	0xbfe227b1	-1.7668363
71	0x3e2773a8	0.16352713
72	0xbf04da10	-0.51895237
73	0xbf306cc7	-0.6891598
74	0x3f4d307f	0.80152124
75	0xbf25cb5b	-0.6476342
76	0x3ef87dea	0.48533565
77	0xbf954317	-1.1661099
78	0x3f1717d3	0.5902073
79	0xbfd1005b	-1.6328233
80	0x3ebd5db7	0.3698556
81	0xbf7df189	-0.9919668
82	0xc00f54e1	-2.2395556
83	0x3f62204e	0.88330543
84	0x3f26bc6a	0.6513125
85	0x3f329524	0.6975882
86	0x3f406b93	0.75164145
87	0xbf6f87a1	-0.9356633
88	0x3f14178e	0.5784844
89	0xbf304012	-0.68847764

weight f4 [3, 2]
0	0xbef31fcd	-0.474852
1	0x3ee1e732	0.441217
2	0xbe5f6400	-0.2181549
3	0x3fe4c72d	1.7873284
4	0x3f3b5aa6	0.73185194
5	0x3fffae68	1.99751

weight f4 [4, 3]
0	0xbebf8c0f	-0.37411544
1	0x3e4265de	0.18984172
2	0xbec86914	-0.39142668
3	0x3fa87b8c	1.3162704
4	0x3fb12f1e	1.3842504
5	0x3f5dee15	0.8669141
6	0x3e25c422	0.161881
7	0xbf23cff8	-0.6398921
8	0xbf91b2c5	-1.1382681
9	0x3f974254	1.1817117
10	0xbeaea475	-0.34109846
11	0x3ef8abe3	0.4856864

weight f4 [8, 2]
0	0xbe5a2632	-0.21303633
1	0x3f0f46ff	0.55967706
2	0x3e0644f7	0.13112246
3	0xbed2a4a5	-0.4114124
4	0x3ed9c255	0.42531076
5	0xbe402d7c	-0.18767351
6	0x3e840b0c	0.25789678
7	0x3e3cc857	0.18435799
8	0xbefe3d0e	-0.49655956
9	0x3f3db143	0.74098605
10	0x3e4a9374	0.19782811
11	0xbdb5efbe	-0.08883618
12	0xbe1669d2	-0.14688805
13	0x3e709439	0.23494042
14	0x3eb3926a	0.35072643
15	0x3e65ea46	0.2245265

bias f4 [8]
0	0xbd1a3d30	-0.03765601
1	0x3e107edc	0.14110893
2	0xbf45251f	-0.7700977
3	0xbe2649ed	-0.16239138
4	0x3f14ebcd	0.58172303
5	0xbf544826	-0.8292259
6	0x3cc1e3be	0.023668166
7	0xbe86a436	-0.26297158

weight_ih_l0 f4 [256, 12]
0	0x3e1ab26a	0.15107122
1	0x3b82b755	0.00398914
2	0xbdcf8714	-0.10133186
3	0xbe2ed02b	-0.17071597
4	0xbe5a1607	-0.21297465
5	0xbcab6adb	-0.020924976
6	0x3e282661	0.1642089
7	0xbdbc2829	-0.091873474
8	0xbe04df54	-0.12975818
9	0x3cb50ae0	0.022099912
10	0xbdeb3f8c	-0.1148673
11	0xbc86c048	-0.016449109
12	0xbdf79a1a	-0.120899394
13	0xbe155e0c	-0.14586657
14	0xbd5878fa	-0.052849747
15	0xbd46bcea	-0.048520006
16	0xbdfcc6bd	-0.12342594
17	0xbdc2597e	-0.094897255
18	0xbe1e3095	-0.1544822
19	0xbe5e30f1	-0.21698357
20	0xbe3d1f9f	-0.18469094
21	0xbe60d6a5	-0.2195688
22	0xbb60fcca	-0.0034330362
23	0x3b67088c	0.0035252897
24	0xbe1b69ac	-0.1517703
25	0xbdc2bd7a	-0.09508796
26	0x3c48208f	0.012214794
27	0xbc7354ad	-0.014851731
28	0xbd2d4f6c	-0.04231207
29	0xbdfb879c	-0.12281725
30	0xbdb2d391	-0.08731759
31	0x3da4d71c	0.08048841
32	0x3dba0659	0.09083242
33	0x3e18371d	0.14864774
34	0x3db625e9	0.088939495
35	0x3e523796	0.20529017
36	0x3dbf76dc	0.093488425
37	0xbe1bc9cf	-0.15213703
38	0xbe3ad22b	-0.18244235
39	0xbe1c5409	-0.15266432
40	0x3d22ac42	0.03971506
41	0x3e74cdfb	0.239067
42	0xbc59450a	-0.013261089
43	0xbc8bac43	-0.017049914
44	0x3d7e3992	0.062066622
45	0xbe029e4c	-0.12755698
46	0xbdd8b1f0	-0.10580814
47	0xbe00f6a3	-0.12594084
48	0xbdbb8ed8	-0.09158105
49	0x3db696f2	0.08915509
50	0xbcea4cbd	-0.028601045
51	0xbdec070f	-0.11524784
52	0xbd75d35a	-0.060016014
53	0x3d5063ab	0.0508763
54	0x3cc23943	0.023708945
55	0x3d06ae4c	0.032881066
56	0x3df5f160	0.12008929
57	0x3ce66ffb	0.028129568
58	0x3d3e77cd	0.04650097
59	0x3d5475e1	0.05187023
60	0x3d59e666	0.05319824
61	0xbe3730b2	-0.1788967
62	0xbe3eec02	-0.18644717
63	0xbe26f9fa	-0.16306296
64	0xbdfd8ca9	-0.123803444
65	0x3c94be68	0.018157199
66	0xbe1efa87	-0.15525256
67	0xbe4a76a2	-0.19771817
68	0x3c373671	0.011182413
69	0xbcace445	-0.021104941
70	0xbe18696f	-0.1488397
71	0x3d8cf0bd	0.06881855
72	0x3b9f4800	0.004860878
73	0x3dfc0f5b	0.12307616
74	0x3c918b53	0.01776663
75	0x3e209274	0.15680867
76	0xbdec56d4	-0.11539999
77	0xbd68afbe	-0.056808226
78	0x3e14fc28	0.14549315
79	0x3e295d03	0.16539387
80	0x3e0b4db9	0.13603868
81	0x3db0a412	0.08625044
82	0xbcdab53b	-0.026697746
83	0x3ca5bfee	0.02023312
84	0x3e1d5cfe	0.15367505
85	0x3d65699c	0.05600892
86	0x3d815ede	0.063169226
87	0x3d19b263	0.03752364
88	0xbdbff760	-0.09373355
89	0xbd4107f2	-0.047126718
90	0x3d3a059c	0.045415506
91	0xbca2727f	-0.019829987
92	0xbd01a2d4	-0.031649426
93	0xbdb39c44	-0.0877004
94	0xbd3215a4	-0.04347767
95	0xbda4c182	-0.08044721
96	0xbe1ca1f7	-0.1529616
97	0xbc429978	-0.01187741
98	0x3d070d1c	0.032971486
99	0xbd5b2c12	-0.053508826
100	0xbda7158c	-0.081584066
101	0xbe33ae25	-0.175469
102	0x3c0f15f6	0.008733263
103	0xbe04d4c3	-0.12971787
104	0xbcd89d22	-0.026442114
105	0xbe1d6f6b	-0.15374534
106	0x3b0c8713	0.0021442815
107	0x3a8a3d68	0.0010546865
108	0xbe553972	-0.20822695
109	0x3bd98f4d	0.0066393972
110	0xbd6251cf	-0.0552538
111	0x3d40bb8e	0.047053866
112	0xbda9a772	-0.08283891
113	0xbd9acac4	-0.07558206
114	0x3d92ac22	0.07161738
115	0xbdc8ee4e	-0.09811078
116	0x3d65a5f7	0.05606648
117	0x3dd0b91c	0.10191557
118	0xbcbff39b	-0.02343159
119	0x3e5bff80	0.21484184
120	0xbd54dc7b	-0.05196808
121	0x3ca099c2	0.019604567
122	0x3d75a6cd	0.059973527
123	0x3c4cbb1b	0.012495781
124	0xbe17721b	-0.14789622
125	0xbe45d935	-0.19321139
126	0x3d79a880	0.06095171
127	0xbd4e326c	-0.050341055
128	0xbdc3a68f	-0.09553253
129	0x3c3e6426	0.011620557
130	0x3dc96044	0.09832814
131	0xbe0082b5	-0.12549861
132	0xbe8ef1e3	-0.2791892
133	0x3c81ea91	0.01585892
134	0xbdde35f8	-0.108501375
135	0xbc2d637c	-0.010582801
136	0x3ca40d23	0.020025795
137	0xbe05ec71	-0.13078476
138	0xbd2f2ad2	-0.042765446
139	0x3d286f92	0.041122027
140	0x3d76177b	0.060080986
141	0x3cd57cde	0.026060518
142	0xbd9dcfee	-0.07705675
143	0x3e0e1d54	0.13878375
144	0xbdf5ed96	-0.120082065
145	0xbcb851bb	-0.02249991
146	0x3e072795	0.13198693
147	0xbdbb0953	-0.09132638
148	0xbe053f99	-0.13012542
149	0xbdceb1ef	-0.10092532
150	0x3db622fe	0.08893393
151	0xbd6fdd2a	-0.058560528
152	0xbd81faad	-0.06346641
153	0x3cf0e3a3	0.02940542
154	0x3e0680ee	0.1313512
155	0x3d7bcfa8	0.061477333
156	0x3d9d5043	0.07681324
157	0x3d4a33b5	0.049365718
158	0xbd6755e5	-0.0564784
159	0xbe3d05a2	-0.1845918
160	0xbdab7c60	-0.08373332
161	0x3dcbf983	0.099597
162	0x3c0d2b2d	0.008616251
163	0x3d8763b5	0.066108145
164	0xbcb397b6	-0.021922927
165	0xbcac2704	-0.021014698
166	0xbd5f63cf	-0.054538544
167	0x3da6deaf	0.08147942
168	0xbe80346f	-0.25040004
169	0xbdc008ec	-0.09376702
170	0xbd7e3e1e	-0.06207096
171	0xbd1b580f	-0.037925776
172	0xbcce8f10	-0.025214702
173	0xbd856dfb	-0.06515118
174	0xbe4058bd	-0.18783851
175	0x3da116c8	0.07865673
176	0x3bf915a9	0.007601459
177	0x3db31b88	0.087454855
178	0xbdba8fb1	-0.09109438
179	0x3e1e3ada	0.15452138
180	0xbe3aaee6	-0.18230781
181	0xbd4214f4	-0.047383264
182	0xbd148c2c	-0.03626649
183	0xbc9e7af8	-0.019345745
184	0x3e0b0884	0.13577467
185	0x3ca580f4	0.020203091
186	0xbe08e6ad	-0.13369246
187	0xbe0be0af	-0.13659929
188	0x3d898546	0.06714873
189	0x3ca52848	0.02016081
190	0xbc0686e7	-0.008210874
191	0xbdc520eb	-0.09625419
192	0xbd45ca61	-0.048288707
193	0xbe59830e	-0.212414
194	0xbd1b1519	-0.037861917
195	0xbe5f5f29	-0.21813644
196	0xbe4dbde6	-0.20091972
197	0x3db7df1f	0.08978104
198	0xbd15ce46	-0.03657367
199	0xbb49f33d	-0.0030815147
200	0xbd320ec6	-0.04347112
201	0xbd4638f6	-0.048394166
202	0x3c11596d	0.008871418
203	0x3b35ff87	0.0027770714
204	0xbd62fd86	-0.05541756
205	0xbc843a91	-0.016141208
206	0xbe17b5b1	-0.14815404
207	0xbd6f5baa	-0.058437027
208	0xbe098930	-0.13431239
209	0x3d5a2b32	0.05326385
210	0x3d01279b	0.03153191
211	0xbda9cf6a	-0.08291514
212	0xbe079f01	-0.13244249
213	0xbe7208de	-0.23636195
214	0xbdba4c53	-0.09096589
215	0xbe8d6885	-0.27618805
216	0xbdc9bacd	-0.098500825
217	0x3d93a1df	0.07208609
218	0xbe36732f	-0.17817377
219	0xbc69f348	-0.014279194
220	0x3e612da6	0.2199007
221	0x3e1fb001	0.15594484
222	0xbe2c5b48	-0.16831696
223	0xbdff5d26	-0.124689385
224	0x3d9dcd78	0.07705206
225	0xbd4562c8	-0.04818991
226	0xbcd8fd73	-0.026488042
227	0xbe1f6b58	-0.15568292
228	0xbdb6d1d8	-0.08926743
229	0xbdd35b4c	-0.10320148
230	0xbe3351cf	-0.17511676
231	0xbcffa6b8	-0.031207427
232	0xbe7fa7e6	-0.24966392
233	0x3d8adf61	0.067808874
234	0x3d38651c	0.0450183
235	0xbe29c902	-0.16580585
236	0x3c1930f5	0.009350051
237	0xbd958095	-0.07299916
238	0xbdc30b19	-0.09523601
239	0xbd2bda68	-0.041956335
240	0xbe386e2a	-0.18010774
241	0xbd177dc0	-0.03698516
242	0x3ccaa45e	0.02473658
243	0xbc37dabe	-0.011221586
244	0xbe491411	-0.19636561
245	0x3cd4761c	0.025935225
246	0xbda52f58	-0.08065671
247	0xbbdb6a9e	-0.0066960594
248	0xbdf7dfc8	-0.1210323
249	0xbe140ba4	-0.14457566
250	0xbe2df59c	-0.16988224
251	0x3d2aeaf5	0.04172798
252	0xbe71ffb3	-0.23632698
253	0xbe5031ba	-0.20331469
254	0xbdb545d6	-0.08851211
255	0xb9614ba6	-0.00021485853

weight_hh_l0 f4 [256, 64]
0	0x3e2adfa9	0.16686882
1	0xbdd9f35a	-0.10642119
2	0xbda429d2	-0.08015789
3	0x3c3e9930	0.011633202
4	0x3d91f88a	0.07127483
5	0xbcb43a8f	-0.02200058
6	0x3d4eab2f	0.050456222
7	0xbd185bb1	-0.03719682
8	0x3ccf4bc6	0.025304686
9	0x3ddd498c	0.108050436
10	0xbca59087	-0.020210518
11	0xbc027188	-0.007961638
12	0xbc54f11a	-0.012996936
13	0x3d11bc77	0.035580125
14	0xbcda3294	-0.026635446
15	0xbbf6d715	-0.007532964
16	0xbdad1ed1	-0.084531434
17	0x3c321264	0.0108686425
18	0xbd878de2	-0.06618859
19	0x3e0c0ff4	0.1367796
20	0xbd468eb2	-0.04847593
21	0x3c479855	0.012182315
22	0xbd8522aa	-0.06500752
23	0xbd9f0830	-0.077652335
24	0x3dfebcf8	0.12438387
25	0x3d49e301	0.049288753
26	0x3d435d4e	0.047696404
27	0xbd9c56e3	-0.0763376
28	0x3dce58c4	0.100755244
29	0xbe0a29c5	-0.13492496
30	0x3d236ac0	0.039896727
31	0x3e0e80fa	0.13916388
32	0xbbb5cca6	-0.0055480776
33	0xbd36be2c	-0.044614956
34	0x3d13e684	0.03610851
35	0xbc3dc1b7	-0.01158183
36	0x3d0e8663	0.03479613
37	0xbe0abd9d	-0.13548894
38	0x3dfa38d5	0.12217871
39	0xbd311346	-0.04323127
40	0xbde4ab74	-0.111655146
41	0xbde570da	-0.11203165
42	0x3da77c56	0.08178012
43	0xbd9b256b	-0.07575496
44	0x3dbfeb4c	0.09371051
45	0xbcd3520b	-0.025795957
46	0xbe06b779	-0.13155927
47	0x3da0e167	0.07855492
48	0x3c41ef34	0.011836816
49	0x3d7a5838	0.06111929
50	0xbdf42399	-0.11920852
51	0x3d759d03	0.05996419
52	0x3c9fdd91	0.01951483
53	0xbe06320a	-0.13105026
54	0x3cfb1a0a	0.030652065
55	0x3b4c19b3	0.0031143248
56	0xbd611d95	-0.054959852
57	0xbc87ff29	-0.016601162
58	0x3dbc2d21	0.09188295
59	0xbe20884e	-0.15676996
60	0x3e2e285c	0.17007583
61	0x3ddf9c66	0.109185025
62	0x3e276b70	0.16349578
63	0x3da26a0b	0.07930382
64	0x3e36a3a3	0.1783586
65	0x3ce513c4	0.027963527
66	0xbd64c40f	-0.05585104
67	0x3de0177e	0.10941981
68	0x3ce56cd5	0.028005997
69	0x3d4c63f9	0.04990003
70	0x3c1b506d	0.009479624
71	0xbe33396c	-0.17502373
72	0x3b9b47bf	0.0047387774
73	0x3d471928	0.048607975
74	0x3d4e190b	0.05031685
75	0x3dfbedb2	0.12301196
76	0x3c71e8b8	0.014764957
77	0xbde07092	-0.10958971
78	0x3ca9651b	0.020678094
79	0xbd69565c	-0.056967124
80	0x3d8cc2aa	0.06873067
81	0xbd84ba4b	-0.06480845
82	0x3da967c8	0.08271748
83	0x3ddc224d	0.1074873
84	0x3deaaddf	0.114589445
85	0x3c9f428d	0.019440914
86	0xbd9ae527	-0.075632386
87	0xbc9a35a4	-0.018824406
88	0xbe0dddc7	-0.13854133
89	0xbe2cfcd5	-0.16893323
90	0xbc9113a4	-0.01770956
91	0x3e0bc1b4	0.1364811
92	0x3de76ff0	0.11300647
93	0x3cde9146	0.027168881
94	0xbe6c366f	-0.2306764
95	0xbb3d4a32	-0.0028883335
96	0x3e243d90	0.16039109
97	0xbc4295cf	-0.011876537
98	0xbcff6702	-0.031177048
99	0xbd3aca31	-0.04560298
100	0xbe479635	-0.19490893
101	0xbce8622b	-0.028367123
102	0x3e25ae08	0.16179669
103	0x3e0d4af1	0.13798119
104	0x3db04c87	0.086083464
105	0x3dc8af32	0.09799041
106	0xbd94204e	-0.07232724
107	0xbc0f7d79	-0.008757942
108	0xbdc61643	-0.09672215
109	0x3c59a0e7	0.013282991
110	0xbe24a835	-0.16079791
111	0x3e0d1039	0.1377572
112	0xbd41fea2	-0.047361977
113	0x3d0b6192	0.034028597
114	0xbd65424c	-0.05597143
115	0x3d32df6a	0.043670096
116	0x3e1f2080	0.15539742
117	0x3dc58dbb	0.096461736
118	0x3d8da384	0.06915954
119	0xbd343434	-0.043995097
120	0xbe214a3c	-0.15750974
121	0xbdb512af	-0.08841454
122	0xbe024ddc	-0.12725013
123	0xbe119ce1	-0.14220001
124	0xbcfc90cc	-0.030830763
125	0x3bbb7d3a	0.0057217153
126	0xbd9b248d	-0.07575331
127	0x3c74b212	0.014935033
128	0xbcf09b97	-0.029371066
129	0x3c9943a5	0.018709013
130	0xbda8b8a6	-0.08238344
131	0xbdc1d374	-0.094641596
132	0xbe0ad654	-0.13558322
133	0xbd128113	-0.035767626
134	0x3c787959	0.01516565
135	0x3d41c217	0.04730424
136	0xbdb0ee61	-0.08639217
137	0xbdb0ffa4	-0.086425096
138	0xbc017cfd	-0.007903335
139	0xbcd257fd	-0.025676722
140	0x3d19e671	0.03757328
141	0x3d8f261c	0.06989691
142	0xbcb3cddb	-0.021948745
143	0xbdf8ebd5	-0.121543564
144	0xbbf91c66	-0.0076022623
145	0x3d2f0361	0.04272783
146	0x3db25e21	0.0870936
147	0x3d01ea9f	0.031717893
148	0x3dab9e58	0.08379811
149	0xbd8aa052	-0.0676886
150	0xbd882406	-0.06647496
151	0x3dd385d1	0.10328258
152	0xbc74eb9e	-0.014948754
153	0xbae67404	-0.0017582183
154	0x3c36dd52	0.011161165
155	0xbb751506	-0.0037396564
156	0x3daff767	0.0859211
157	0xbd6118bc	-0.05495523
158	0x3bd20279	0.006408986
159	0x3e162a1a	0.14664498
160	0xbc200fde	-0.009769408
161	0x3c2a80a0	0.010406643
162	0xb7d4e888	-2.538065e-05
163	0x3e583d2f	0.2111709
164	0xbc814643	-0.015780574
165	0xbd46755e	-0.048451774
166	0x3d379ae6	0.044825457
167	0xbceff077	-0.029289467
168	0x3d2554c6	0.04036405
169	0xbd297f66	-0.041381262
170	0x3ce4e0d6	0.027939241
171	0x3c8d037c	0.017213576
172	0xbe0af543	-0.13570122
173	0x3daf907a	0.085724786
174	0x3b1a64fa	0.0023558722
175	0xbdb79cd2	-0.08965458
176	0xbda5899b	-0.08082887
177	0x3e218b08	0.15775692
178	0x3d5bcddc	0.05366312
179	0x3d96c851	0.07362426
180	0x3d6fea9a	0.058573343
181	0x3d1bc5d0	0.038030446
182	0x3dede4eb	0.11615928
183	0x3d1128f7	0.035439458
184	0x3e13eb20	0.14445162
185	0xbd42f8b5	-0.047600467
186	0xbd918d76	-0.0710706
187	0xbc6cab68	-0.014445163
188	0x3df954ec	0.12174401
189	0x3df28c8f	0.11843216
190	0xbc87a9c3	-0.01656044
191	0x3def6b3c	0.11690375
192	0x3d77503e	0.06037926
193	0x3d9ffa2b	0.07811388
194	0x3d2616e3	0.04054917
195	0xbc1bbc25	-0.009505306
196	0xbcfa068b	-0.030520698
197	0xbbb19a9a	-0.0054200413
198	0xbd8b44e0	-0.06800246
199	0xbc0ef634	-0.008725692
200	0x3dac2cfa	0.08407016
201	0x3d2f7aba	0.04284165
202	0x3d87fedf	0.0664041
203	0x3d797174	0.060899213
204	0xbdeac36f	-0.11463057
205	0x3cc56c11	0.024099382
206	0xbdd5778e	-0.10423194
207	0xbd0e95a8	-0.034810692
208	0x3db6372c	0.08897242
209	0x3dbba7fa	0.09162898
210	0x3d89c99b	0.06727906
211	0x3e0572db	0.13032095
212	0xbca7a753	-0.020465529
213	0x3c76a4f9	0.015053981
214	0x3d471760	0.048606277
215	0x3e0fee7f	0.14055823
216	0xbe11b79b	-0.14230196
217	0x3c669464	0.014073465
218	0x3d5efe7d	0.054441918
219	0xbd8981d9	-0.067142196
220	0xbdd4d2eb	-0.10391792
221	0x3d4c4ec1	0.049879793
222	0x3de6ea76	0.112751886
223	0x3e0954f4	0.13411313
224	0x3e2144d4	0.15748912
225	0xbd11e3e9	-0.035617743
226	0xbd805674	-0.062664896
227	0x3d47d540	0.048787355
228	0x3de3eabc	0.111287564
229	0xbdc2337b	-0.09482475
230	0x3d67ac05	0.056560535
231	0x3db9efa1	0.09078909
232	0x3c405342	0.0117386
233	0x3d74ff3f	0.059813734
234	0xbe0f2ddc	-0.13982338
235	0x3dbc24ea	0.09186728
236	0xbe066231	-0.13123395
237	0xbde46bd7	-0.11153381
238	0xbe085f7f	-0.13317679
239	0x3cceeb5e	0.025258716
240	0xbdbbc860	-0.09169078
241	0x3d70eb98	0.05881843
242	0x3dc869c3	0.097857974
243	0xbd9ccdb0	-0.07656419
244	0x3be712a2	0.0070517818
245	0x3c2469ae	0.010034962
246	0x3d314ec7	0.04328802
247	0xbe08d5b8	-0.13362777
248	0xbd8c3f53	-0.06848016
249	0xbd078e82	-0.03309489
250	0xbc180f5e	-0.009281008
251	0xbda17438	-0.07883495
252	0x3d9933d6	0.0748059
253	0xbd94a568	-0.07258111
254	0xbc855429	-0.016275482
255	0xbd839972	-0.06425752

bias_ih_l0 f4 [256]
0	0xbd7f762d	-0.06236856
1	0xbc30c5b4	-0.010789324
2	0xbd88390d	-0.066515066
3	0xbe0b8a1b	-0.13626902
4	0x3b6f54cd	0.003651905
5	0xbd818871	-0.06324852
6	0xbd0bb494	-0.03410776
7	0x3da28a61	0.0793655
8	0x3d2e3025	0.042526383
9	0xbd1f025a	-0.038820602
10	0x3db1fea2	0.086911455
11	0xbd32f207	-0.043687847
12	0x3dd4b075	0.10385219
13	0xbb6f05d9	-0.0036471991
14	0x3d8099d2	0.06279339
15	0xbd1cd376	-0.038287602
16	0xbe3b2db6	-0.18279156
17	0xbe3da520	-0.18520021
18	0x3d8d836d	0.06909833
19	0xbe3282c4	-0.17432696
20	0xbcb99f83	-0.022659069
21	0xbdea7614	-0.11448303
22	0x3e3297aa	0.17440668
23	0xbe2bdae9	-0.16782726
24	0x3da08607	0.07838064
25	0xbd83936e	-0.06424604
26	0xbd114823	-0.035469186
27	0x3e2848db	0.16434042
28	0x3dab37ad	0.08360229
29	0x3dac4cbc	0.084130734
30	0xbd77143b	-0.060322028
31	0x3d5c35ca	0.053762235
32	0x3b49011a	0.0030670823
33	0x3d3c2af8	0.045939416
34	0xbe149d12	-0.14513043
35	0x3c46e3ea	0.0121393
36	0xbc19ba6f	-0.009382828
37	0xbdb74e75	-0.08950511
38	0xbdf4fa7b	-0.11961838
39	0xbddceccd	-0.10787354
40	0xbcc8c592	-0.024508271
41	0xbda22a93	-0.07918277
42	0xbde1d436	-0.11026804
43	0x3cfec795	0.031101028
44	0xbd57f532	-0.05272407
45	0xbc995000	-0.018714905
46	0xbd8d24c4	-0.06891778
47	0xbab7583a	-0.0013988086
48	0xbe60c9a2	-0.21951917
49	0x3d68d2d5	0.05684169
50	0xbd45c3b2	-0.048282333
51	0xbd88d551	-0.06681312
52	0xbde5ebda	-0.11226626
53	0x3d500cc7	0.050793435
54	0xbb3bc7bd	-0.002865299
55	0xbcae595f	-0.02128285
56	0xbd79db80	-0.061000347
57	0x3d8a3d73	0.06750002
58	0xbb10ab3f	-0.0022074727
59	0xbe165964	-0.14682537
60	0x3a025dda	0.00049730914
61	0xbdb50c2a	-0.08840211
62	0xb9be9743	-0.00036352323
63	0xbca2b953	-0.01986376
64	0xbd752e39	-0.059858534
65	0xbdb58b10	-0.08864415
66	0x3dc64fd2	0.09683193
67	0xbc9d7db3	-0.019224977
68	0x3d0474ee	0.032338075
69	0xbe0327c3	-0.12808137
70	0xbd839386	-0.06424622
71	0x3916fec4	0.00014400022
72	0xbd93e51f	-0.07221436
73	0xbc2eb143	-0.01066238
74	0xbdfcd3a7	-0.12345057
75	0xbe04dcb1	-0.12974812
76	0x3deb4407	0.114875846
77	0xbdd7ac4f	-0.10530912
78	0x3d864e7f	0.06557941
79	0xbdb69fcb	-0.08917197
80	0xbe4be78e	-0.1991255
81	0xbdb70b55	-0.08937708
82	0xbc4f219b	-0.0126422895
83	0xbd5f08b0	-0.054451644
84	0x3d02ebb1	0.031963054
85	0xbe080a30	-0.13285136
86	0x3c93152c	0.017954431
87	0xbcb741a2	-0.022370163
88	0x3d634165	0.055482287
89	0xbd5c2b1e	-0.053752057
90	0xbd2f0aa4	-0.042734757
91	0x3c7b3350	0.015332058
92	0x3dcc6b47	0.09981399
93	0x3de51e2e	0.11187397
94	0x3c8bebac	0.01708015
95	0x3af46b6b	0.0018647736
96	0xbc92891b	-0.017887643
97	0x3c8ce5d8	0.017199442
98	0xbc0f1814	-0.008733768
99	0x3e104276	0.14087853
100	0x3dc959fe	0.09831618
101	0xbdcb2be1	-0.099204786
102	0xbd03fe50	-0.032224953
103	0xbc98890b	-0.018620035
104	0xbd2529ea	-0.040323175
105	0xbb4d8731	-0.0031361098
106	0x3c8ccb12	0.017186675
107	0x3d0531f9	0.03251836
108	0x3d2c9c35	0.042141158
109	0xbe07c10d	-0.13257237
110	0x3cfca65f	0.03084105
111	0xbd8915f3	-0.066936396
112	0xbc712aa1	-0.014719636
113	0x3cae8f95	0.0213087
114	0xbdeec77d	-0.11659143
115	0x3d861ad7	0.06548088
116	0xbd9b489d	-0.07582209
117	0xbd815a10	-0.06316006
118	0xbc2db674	-0.010602582
119	0x3da09b4b	0.0784212
120	0xbc81e2d5	-0.015855232
121	0x3dacb990	0.08433831
122	0xbe1206f4	-0.14260465
123	0xbdc047ff	-0.09388732
124	0x3e3726d2	0.17885903
125	0x3d8a314f	0.06747686
126	0x3d9286be	0.07154606
127	0xbaf6426c	-0.0018788106
128	0xbd867471	-0.06565178
129	0x3d8e9d15	0.06963555
130	0xbd1db3f4	-0.038501695
131	0x3dfdf6d6	0.12400596
132	0xbd18ebf8	-0.037334412
133	0xbdad3861	-0.08458019
134	0x3da283d2	0.07935299
135	0x3d0ce01b	0.03439341
136	0x3dd0cb35	0.10195009
137	0x3bd60fb7	0.006532635
138	0xbdaca21a	-0.08429356
139	0x3cb97a79	0.022641407
140	0x3d61df64	0.055144683
141	0xbdea6b68	-0.11446267
142	0x3d9ef53f	0.07761621
143	0x3a6b6637	0.000897977
144	0xbcbc39a5	-0.022976706
145	0xbda163ac	-0.07880339
146	0xbe2eb896	-0.17062601
147	0x3def68a7	0.11689883
148	0xbd58e2c0	-0.05295062
149	0x3d72d029	0.05928055
150	0x3dbd4781	0.09242154
151	0xbd84414b	-0.06457766
152	0xbbed5966	-0.007243323
153	0xbd44f9d2	-0.04808981
154	0xbbdea274	-0.0067942683
155	0xbe3485be	-0.17629144
156	0xbda4ccf5	-0.08046905
157	0xbd116a46	-0.03550174
158	0x3dca6749	0.09882981
159	0xbbdd19fe	-0.0067474833
160	0x3d9bafe3	0.07601907
161	0xbd2a0f25	-0.04151835
162	0x3cd00810	0.02539447
163	0x3c7234de	0.014783112
164	0x3ba1f80c	0.0049428996
165	0xbdfeeff0	-0.12448108
166	0xbd8749c4	-0.066058666
167	0xbb61540a	-0.0034382367
168	0xbe13f4e5	-0.14448889
169	0x3d92c222	0.07165934
170	0xbe1d66b9	-0.15371217
171	0x3d7ba600	0.061437607
172	0xbc93a0fa	-0.018021096
173	0x3c967c36	0.018369775
174	0x3d8ea3bf	0.06964826
175	0xbb8dbcf5	-0.004325504
176	0x3d9adff1	0.07562245
177	0x3d94dbed	0.0726851
178	0xbdeea0df	-0.116517775
179	0x3d9db799	0.07701034
180	0x3d80d192	0.06289972
181	0xbd79c796	-0.060981356
182	0xbce28946	-0.027653348
183	0xbe1557d2	-0.14584282
184	0x3b6b5de5	0.003591412
185	0x3d2e1062	0.042496093
186	0x3d958a79	0.07301802
187	0xbd7d9b94	-0.06191595
188	0x3d8d21de	0.06891225
189	0x3dabab54	0.083822876
190	0x3dc50928	0.09620887
191	0x3d3775a1	0.044789914
192	0xbc7aa8aa	-0.015299002
193	0xbe1a662e	-0.15078041
194	0x3ce1bff7	0.027557356
195	0x3cd1c174	0.025604941
196	0x3d8397a7	0.0642541
197	0xba9e535f	-0.001207929
198	0x3cea667d	0.028613323
199	0xbd7fa3ec	-0.062412187
200	0x3d4d0ecc	0.05006294
201	0x3c8b7dc8	0.01702775
202	0xbc726011	-0.014793412
203	0x3d5d7826	0.05406966
204	0xbd20230b	-0.03909592
205	0xbdb14fd0	-0.08657801
206	0xbcbbaa74	-0.022908427
207	0x3dd737ee	0.105087146
208	0xbda5287f	-0.08064365
209	0xbdd37889	-0.10325725
210	0xbe17cc8c	-0.14824122
211	0xbdba981f	-0.09111046
212	0xbe300ae8	-0.1719166
213	0xbd9aab71	-0.07552231
214	0x3e1b8649	0.15187944
215	0xbd976b5a	-0.073935226
216	0x3cefe325	0.029283116
217	0xbda7709d	-0.08175776
218	0xbd89a95a	-0.06721754
219	0x3d3c09b4	0.04590769
220	0x3d47a535	0.048741538
221	0xbe03d427	-0.12873898
222	0xbd7e37b0	-0.062064826
223	0xbda4e65d	-0.08051751
224	0x3d685bc5	0.056728143
225	0xbd474caa	-0.048657097
226	0xbdf97df7	-0.12182229
227	0xbcf7da69	-0.030255513
228	0xbda47ea6	-0.08031969
229	0xbdf22b89	-0.1182471
230	0xbe05c696	-0.13064036
231	0xbe52fd81	-0.20604517
232	0x3d8462d6	0.06464164
233	0x3c265f95	0.0101546245
234	0x3cf2542b	0.02958115
235	0xbc89322a	-0.016747553
236	0xbd11996e	-0.035546713
237	0x3d7eeb3f	0.062236067
238	0xbd8c135e	-0.068396315
239	0xbe2d08b3	-0.1689785
240	0x3cb210f3	0.021736598
241	0xbd207176	-0.039170705
242	0xbdf9bc8b	-0.12194165
243	0xbe064e8d	-0.13115902
244	0x3cd6197c	0.026135199
245	0x3da8f525	0.082498826
246	0x3ccb801c	0.02484136
247	0x3beb0305	0.007171991
248	0x3bc08d2a	0.005876203
249	0xbd87966e	-0.06620489
250	0x3d30339f	0.04301798
251	0xbe0dca4a	-0.13846698
252	0x3d9e1b53	0.077200554
253	0xbda1047b	-0.07862183
254	0x3d55cafd	0.052195538
255	0xbe10f5a1	-0.141562

bias_hh_l0 f4 [256]
0	0xbdc2646f	-0.094918124
1	0xbd3e0c10	-0.046398222
2	0x3d90ab2d	0.07063899
3	0xbe0ad4d0	-0.13557744
4	0xbd7fa548	-0.062413484
5	0xbd21b8d2	-0.0394829
6	0x3d35af07	0.044356372
7	0x3d0829d4	0.033243015
8	0x3c377548	0.011197396
9	0xbd418ebf	-0.047255274
10	0x3da0cb36	0.078512594
11	0xba0c6fde	-0.00053572457
12	0x3da9fa65	0.08299712
13	0x3d325b14	0.04354389
14	0xbd1d1c2d	-0.03835695
15	0x3c4fde33	0.012687254
16	0xbd602112	-0.05471904
17	0xbe3f5dc7	-0.18688117
18	0xbd2b6bab	-0.041850727
19	0xbb0b651f	-0.002126999
20	0xbd2da6dd	-0.04239546
21	0xbe1052ed	-0.14094134
22	0xbcc717ab	-0.024303278
23	0xbe49ccd3	-0.1970704
24	0xbc8e6078	-0.017379984
25	0xbd905366	-0.07047157
26	0x3c92c589	0.017916458
27	0x3e209d01	0.15684892
28	0xbd417e7b	-0.04723976
29	0x3c142b49	0.009043523
30	0x3e00e545	0.1258746
31	0x3d4cf902	0.05004216
32	0xbe1b8e50	-0.15191007
33	0x3d890d29	0.06691963
34	0xbe100fb2	-0.14068487
35	0x3de2dd07	0.11077314
36	0xbd043671	-0.032278482
37	0xbe11a88f	-0.14224456
38	0xbe177279	-0.14789762
39	0xbcf3e884	-0.029773958
40	0xbdbb9bde	-0.09160589
41	0xbe11439e	-0.1418595
42	0xbd77f4a9	-0.06053606
43	0x3d03301f	0.032028314
44	0x3d1f30bd	0.03886484
45	0xbd81c797	-0.06336897
46	0xbe0392f0	-0.12849021
47	0xbe215aba	-0.15757266
48	0xbe1533b1	-0.145705
49	0x3d0d5054	0.034500435
50	0xbe499a94	-0.19687873
51	0xbd1d5c8d	-0.03841834
52	0x3cd73fcd	0.02627554
53	0xbcb4fac1	-0.022092225
54	0xbdde7b47	-0.10863357
55	0xbd94d938	-0.07267994
56	0x3d4abf96	0.049499117
57	0xbd95459e	-0.07288669
58	0xbdf9f061	-0.12204052
59	0xbd7e0238	-0.062013835
60	0xbcd74b1d	-0.026280934
61	0x3d231c69	0.039822016
62	0xbd1f6a60	-0.038919806
63	0xbda458ff	-0.08024787
64	0x3db28ecf	0.08718645
65	0xbd021b4a	-0.031764306
66	0x3d60cbf8	0.05488202
67	0xbdd39bf5	-0.10332481
68	0x3df33ed4	0.11877218
69	0xbe4a2fa6	-0.19744739
70	0x3d0266c1	0.031836275
71	0x3da0587f	0.07829379
72	0x3d5fbc5e	0.054623
73	0xbd996476	-0.074898645
74	0x3d1daa3c	0.038492426
75	0xbd8597a3	-0.06523063
76	0x3d98d279	0.074620195
77	0xbd366acb	-0.04453544
78	0xbd9c6bed	-0.07637773
79	0x3c06be78	0.008224122
80	0xbdf9b851	-0.12193359
81	0x3bc509a3	0.0060131117
82	0xbd041f1d	-0.032256234
83	0xbdddcff5	-0.1083068
84	0xbdc86c45	-0.09786276
85	0xbc845b5f	-0.01615685
86	0x3e05a55e	0.13051364
87	0xbe03c59e	-0.12868354
88	0x3dcb436d	0.0992497
89	0xbd2ed2a0	-0.042681336
90	0x3dabae01	0.08382798
91	0x3e1b7781	0.15182306
92	0xbd83182b	-0.06401094
93	0xbda91ae7	-0.08257084
94	0xbd672d68	-0.056439787
95	0xbb82daec	-0.0039933827
96	0xbc91e283	-0.017808205
97	0x3cbb94af	0.022898046
98	0xbd018c86	-0.031628154
99	0x3e7679f1	0.24069954
100	0x3d8e505b	0.0694892
101	0xbe127d5d	-0.14305635
102	0xbd9da161	-0.07696796
103	0xbe45567d	-0.19271274
104	0x3c9ad8c6	0.018902194
105	0xbdf42899	-0.11921806
106	0xbde4d857	-0.11174076
107	0xbdb2110e	-0.08694659
108	0x3cd56a5c	0.026051693
109	0x3cdc1b70	0.026868552
110	0x3df63d75	0.12023441
111	0xbe0e81d4	-0.13916713
112	0xbdfbee02	-0.12301256
113	0xbdcab062	-0.098969236
114	0xbcc52275	-0.024064282
115	0x3d933f4b	0.071898066
116	0xbdeb3edc	-0.11486599
117	0xbd2d788e	-0.042351298
118	0x3d0e146e	0.034687452
119	0x3d231672	0.039816327
120	0xbd5c1f04	-0.053740516
121	0x3e35267f	0.17690466
122	0x3d48e36d	0.049045015
123	0x3d2a3adf	0.04156005
124	0x3d9d63c4	0.076850444
125	0x3d37daf8	0.04488656
126	0x3cc94ad0	0.024571806
127	0x3d132a4d	0.035929013
128	0x3dc71412	0.09720625
129	0x3d3a1ced	0.045437742
130	0x3db41002	0.08792116
131	0xbc623b9c	-0.013808157
132	0x3dd0c955	0.10194651
133	0x3d9b8691	0.07594026
134	0xbdb5b7ec	-0.08872971
135	0xbd97f278	-0.07419294
136	0xbca20af1	-0.019780608
137	0xbdd606a7	-0.104504876
138	0xbd25d8b6	-0.040489875
139	0x3d36f432	0.044666477
140	0xbd238f58	-0.039931625
141	0x3c47de52	0.012199001
142	0xbca7f555	-0.020502726
143	0x3d1a62d0	0.03769189
144	0x3dae9027	0.08523589
145	0x3dd5bffc	0.10437009
146	0x3c8006ef	0.015628306
147	0xbd8e0e3f	-0.06936311
148	0xbb8d1c1d	-0.00430633
149	0x3da59c5f	0.08086466
150	0x3e0d3c07	0.1379243
151	0x3c03c26b	0.008041958
152	0x3de77db1	0.113032706
153	0x3db92c29	0.09041626
154	0x3df55d0d	0.11980639
155	0xbe0291ab	-0.1275088
156	0xbdab5d9a	-0.083674625
157	0xbd9041a0	-0.07043767
158	0xbe00b112	-0.12567547
159	0x3e0d9488	0.13826191
160	0xbd9fd98e	-0.07805167
161	0xbd4a7739	-0.049430106
162	0x3d513372	0.051074453
163	0x3d2a224d	0.041536618
164	0xbc9ea49a	-0.019365598
165	0x3d633fc0	0.05548072
166	0xbd1e7099	-0.0386816
167	0xbd6372f6	-0.055529557
168	0x3dac20ab	0.084046684
169	0x3d32af2d	0.043624092
170	0x3c0068c9	0.007837483
171	0x3d050be2	0.032482035
172	0x3dcdcd1c	0.10048887
173	0xbd91fcc7	-0.071282916
174	0xbdb3d495	-0.08780781
175	0x3d5a84e0	0.053349376
176	0xbdedddf5	-0.116146006
177	0xbbf9e77c	-0.007626472
178	0x3c04a0a0	0.008094937
179	0x3c0bd6c9	0.0085350955
180	0x3d8d6651	0.06904281
181	0xbe09b7ba	-0.13448992
182	0x3d1e6172	0.03866715
183	0x398da2e8	0.0002701499
184	0xbc0514ff	-0.008122682
185	0x3de34636	0.11097376
186	0xbd0615dc	-0.03273569
187	0x3d134e23	0.03596319
188	0xbdecce3e	-0.11562775
189	0x3c4fac7d	0.012675402
190	0x3e0774b9	0.1322812
191	0x3de87abf	0.11351537
192	0x3d6afb4a	0.057368554
193	0xbdee4217	-0.116336994
194	0x3d404dc3	0.04694916
195	0xbe1da57a	-0.15395156
196	0xbcbe6c59	-0.023245024
197	0x3b719b0d	0.00368661
198	0x3d90a182	0.07062055
199	0xbdbd7d40	-0.09252405
200	0xbd8afa6e	-0.06786047
201	0xbdb77300	-0.089574814
202	0x3aa17f5f	0.0012321285
203	0xbdba73d6	-0.09104125
204	0x3d6f1964	0.058373824
205	0xbd6906ae	-0.056891136
206	0xbb9756dc	-0.0046185087
207	0x3c337142	0.010952296
208	0xbe330987	-0.17484103
209	0xbe583aa1	-0.21116115
210	0xbdb446e3	-0.08802583
211	0x3ca48845	0.02008451
212	0xbe4cd823	-0.20004325
213	0xbc64aa29	-0.013956585
214	0xbd93e02c	-0.07220492
215	0xbd3fa982	-0.046792515
216	0x3d04a6da	0.032385685
217	0xbdb91d2d	-0.09038768
218	0xbdaba0ad	-0.08380256
219	0x3aa5e979	0.0012658081
220	0x3cde092b	0.027103981
221	0x3cdb5b1f	0.026776848
222	0x3d07ef39	0.033187125
223	0x3c485080	0.012226224
224	0xbe0b03dd	-0.13575692
225	0x3da3c6bb	0.07996889
226	0xbdc36f49	-0.0954271
227	0xbc5d40a8	-0.013504185
228	0x3e0eb4c3	0.13936143
229	0x3da8bba4	0.082389146
230	0xbe31c948	-0.17361939
231	0xbdbcafb7	-0.092132024
232	0xbd8618a0	-0.065476656
233	0xbce86e58	-0.028372929
234	0xbe055b85	-0.13023193
235	0xbe172b76	-0.14762673
236	0xbe366e1c	-0.17815441
237	0xbaf81e0e	-0.0018929855
238	0x3d9f68f3	0.07783689
239	0x3c38f96c	0.011289936
240	0xbc4f0bd6	-0.012637099
241	0xbdd13cb4	-0.10216656
242	0xbe5d40cc	-0.2160675
243	0xbda1f78e	-0.079085454
244	0xbe079be0	-0.13243055
245	0xbab0c096	-0.001348513
246	0xbd14ba06	-0.03631022
247	0xbd881e0c	-0.06646356
248	0xbc574d2e	-0.01314096
249	0x3da4de77	0.08050244
250	0xbdbc8ef6	-0.09206955
251	0xbdc87da0	-0.09789586
252	0x3d3d563d	0.04622482
253	0xbde4d818	-0.11174029
254	0xbe0fbc0a	-0.14036575
255	0xbded89fa	-0.115985826

weight_ih_l0 f4 [512, 64]
0	0x3dc0697c	0.093951195
1	0xbd860d80	-0.06545544
2	0xbdcbfb23	-0.0996001
3	0x3c568c6c	0.013095003
4	0x3d3adf10	0.045622885
5	0xbcea45f4	-0.02859781
6	0x3cb3b1cc	0.021935366
7	0xbe06feb5	-0.131831
8	0x3d020dfa	0.03175161
9	0x3d6c8efd	0.05775355
10	0x3db7593f	0.08952569
11	0x3c4bcbf9	0.012438768
12	0xbd0b49bc	-0.034005865
13	0xbbbd9382	-0.0057854066
14	0xbc08b295	-0.0083433585
15	0xbd0955ae	-0.033528976
16	0xbd06768b	-0.032827895
17	0x3c4dddb7	0.012565068
18	0x3dae2e9b	0.08504983
19	0x3d35e525	0.044407982
20	0x3dc7acad	0.09749732
21	0xbdad805a	-0.08471747
22	0x3cb3c49d	0.021944338
23	0xbc03baa4	-0.008040104
24	0x3bae2c8c	0.005315369
25	0xbda5c937	-0.08095019
26	0x3d8126ea	0.063062504
27	0xbc98c38b	-0.01864793
28	0x3dc2c655	0.09510485
29	0x3d7739d3	0.06035788
30	0x3d26b7a5	0.04070248
31	0x3d5489e9	0.051889334
32	0x3d81d125	0.06338719
33	0xbdb4ae1e	-0.08822273
34	0xbca282ba	-0.019837726
35	0x3da362d4	0.07977834
36	0x3d609626	0.054830693
37	0xbde9bcd2	-0.11412968
38	0xbd418fb4	-0.047256187
39	0xba9d4722	-0.0011999349
40	0x3d71eb59	0.059062336
41	0xbd2330f9	-0.039841626
42	0x3d72182a	0.059105076
43	0x3ce88c7b	0.028387299
44	0x3d8224fe	0.06354712
45	0xbcb8b9e2	-0.022549573
46	0xbda2f72e	-0.07957302
47	0x3dc0cb09	0.09413726
48	0xbcf224f7	-0.029558642
49	0xbd236021	-0.039886598
50	0xbda90c1d	-0.082542636
51	0x3d342707	0.043982532
52	0x3dba9c52	0.09111847
53	0x3c2f2c59	0.010691726
54	0x3cee26c2	0.029071216
55	0xbc4c80ba	-0.012481863
56	0xbd8dbe88	-0.069211066
57	0xbde3bc18	-0.111198604
58	0x3d793331	0.060839836
59	0xbcde9082	-0.027168516
60	0x3dbd8277	0.092534
61	0x3d67fc6e	0.05663722
62	0x3c029130	0.007969186
63	0xbc49baaf	-0.012312575
64	0x3db1d99d	0.086840846
65	0xbcbf28f5	-0.02333496
66	0x3d5ad657	0.053427067
67	0x3d9bc00b	0.07604989
68	0xbdc19334	-0.09451905
69	0x3b6c0e90	0.0036019422
70	0x3d4bf694	0.049795702
71	0xbd68a8b3	-0.05680151
72	0x3c2dcc0a	0.010607729
73	0xbdb403e2	-0.08789803
74	0xbd48afe7	-0.04899588
75	0x3dc38e85	0.09548668
76	0x3da36cb8	0.07979721
77	0xbd0aecad	-0.033917118
78	0xbe1120ae	-0.14172623
79	0xbd97df3c	-0.074156255
80	0xbce9217f	-0.028458355
81	0x3d5fe2e8	0.054659754
82	0x3db9423a	0.09045835
83	0x3ba4657b	0.00501698
84	0xbd7ab06b	-0.0612034
85	0xbc8e30e5	-0.0173573
86	0xbc94dd14	-0.018171825
87	0x3d7040d9	0.058655594
88	0xbdb31550	-0.087442994
89	0x3d78a2c9	0.06070212
90	0xbcbfea36	-0.02342711
91	0xbdab6e26	-0.083706185
92	0xbd0b8019	-0.03405771
93	0xbd9f6298	-0.07782477
94	0x3c8f1999	0.01746826
95	0xbc544f1e	-0.012958316
96	0xbccf423b	-0.025300136
97	0xbe046259	-0.12928142
98	0x3dc7c1d8	0.0975377
99	0x3dab32ba	0.08359285
100	0xbd22d578	-0.03975436
101	0x3d4dfc5d	0.0502895
102	0x3cdcf0c7	0.02697028
103	0x3d476d91	0.048688475
104	0xbdccbef8	-0.09997362
105	0xbd00d0c9	-0.031449113
106	0xbde71599	-0.11283416
107	0xbcfb013b	-0.030640235
108	0xbc5d1695	-0.0134941535
109	0xbd8e90ad	-0.069611885
110	0xbda4e589	-0.08051593
111	0xba97a34e	-0.0011569054
112	0xbda4a5b8	-0.08039421
113	0xbd47d14f	-0.048783597
114	0xbdafbb24	-0.08580616
115	0x3d9cd6df	0.07658171
116	0xbde368d5	-0.111039795
117	0x3d026662	0.03183592
118	0x3ba69627	0.0050838175
119	0xbd90035b	-0.0703189
120	0x3c756e4c	0.01497991
121	0xbd9fe4f5	-0.07807342
122	0xbcd92b04	-0.02650977
123	0xbd9a9ca3	-0.07549407
124	0x3dfb4f7b	0.12271019
125	0xbd1d531b	-0.038409334
126	0x3c460ea7	0.012088454
127	0x3da0f8eb	0.07859977
128	0x3dcce91b	0.10005399
129	0xbc4b36a9	-0.012403169
130	0x3ce85859	0.02836244
131	0x3cd05a16	0.025433581
132	0x3d165f96	0.03671225
133	0xbc2ae517	-0.010430596
134	0x3dba76e6	0.09104709
135	0xbe5ce50e	-0.21571752
136	0xbd8fa360	-0.07013583
137	0x3ccc4b14	0.024938144
138	0x3c7eba55	0.015547355
139	0x3cd7a62d	0.026324356
140	0x3d75fb29	0.060053978
141	0xbd557b42	-0.0521195
142	0xbe1460d7	-0.14490066
143	0xbacd3662	-0.0015656466
144	0x3d5c4c0b	0.053783458
145	0x3db1e411	0.08686078
146	0x3dbdae71	0.09261788
147	0x3e1bf3c7	0.15229712
148	0x3bb126bd	0.0054062293
149	0xbd5a115f	-0.053239223
150	0x3e384937	0.17996679
151	0xbd70ef24	-0.058821812
152	0xbe83f78a	-0.25774795
153	0x3d18548e	0.037190013
154	0xbd5e4da6	-0.05427327
155	0x3dc0d31c	0.09415266
156	0x3b79f19e	0.00381384
157	0xbc0392a6	-0.008030569
158	0x3c186088	0.009300359
159	0x3d5555b0	0.05208367
160	0xbba79d94	-0.0051152203
161	0xbe2c3228	-0.16816008
162	0x3d318048	0.04333523
163	0x3dada00d	0.08477793
164	0xbd484323	-0.04889215
165	0xbd7b30cd	-0.061325837
166	0x3cd928a4	0.026508637
167	0x3de476f9	0.11155505
168	0xbda35f00	-0.07977104
169	0xbb0b234b	-0.0021230753
170	0xbe07ace4	-0.13249546
171	0xbd57bffd	-0.05267333
172	0x3c9f0294	0.019410409
173	0xbd69278b	-0.056922477
174	0xbd1d0713	-0.038336825
175	0xbd2e8ede	-0.042616718
176	0x3ca9f19e	0.020745095
177	0x3d516255	0.051119167
178	0xbd9d35ec	-0.076763004
179	0x3b3439bc	0.0027500233
180	0xbda27995	-0.07933346
181	0xbd324f2a	-0.043532528
182	0x3ddffe8f	0.10937225
183	0x3d343d8f	0.04400402
184	0x3d492ff6	0.049118005
185	0xbde9b69a	-0.114117816
186	0x3d856b9a	0.06514664
187	0xbcaef3b4	-0.021356441
188	0x3e0f899a	0.14017335
189	0x3d8340f6	0.06408875
190	0xbdaf4c64	-0.08559492
191	0xbd39979b	-0.045310598
192	0xbd8365d1	-0.06415904
193	0x3cac35ee	0.02102181
194	0x3b6682cd	0.0035173178
195	0x3d67b2ac	0.05656688
196	0xbdbb383b	-0.091415845
197	0xbd94e9df	-0.0727117
198	0xbddd541d	-0.10807059
199	0x3d27bad7	0.04094967
200	0xbad21f82	-0.0016031119
201	0xbdf01f42	-0.11724712
202	0xbda06826	-0.07832365
203	0x3dc905b6	0.098155424
204	0x3d854a00	0.06508255
205	0x3db8bd5f	0.09020495
206	0xbdd4d6f0	-0.103925586
207	0x3d87e4ee	0.06635462
208	0x3e064a41	0.13114263
209	0xbd14e2d4	-0.036349133
210	0x3d9df1fe	0.07712172
211	0xbdc24162	-0.09485127
212	0xbd8404ec	-0.06446251
213	0xbd9e0272	-0.0771531
214	0x3e523aef	0.20530294
215	0x3dd3d184	0.10342696
216	0xbe2dae8f	-0.1696112
217	0x3db38a6b	0.087666355
218	0xbe08d44a	-0.13362232
219	0x3d02155f	0.031758662
220	0xbd74b369	-0.05974141
221	0xbd273587	-0.040822532
222	0x3d7230f0	0.0591287
223	0x3e5844c9	0.2111999
224	0x3cddacbf	0.02705991
225	0xbe3eb468	-0.18623507
226	0xbd13e833	-0.036110114
227	0x3df077db	0.117416106
228	0x3d8a8b85	0.067648925
229	0xbba1c245	-0.004936489
230	0x3a36cc26	0.00069731695
231	0x3d8b5f73	0.06805315
232	0xbcac2266	-0.021012496
233	0x3d961ee6	0.07330112
234	0xbd166c02	-0.036724098
235	0xbab99324	-0.0014158231
236	0xbe2585cc	-0.1616432
237	0x3d83af61	0.06429935
238	0x3cf1a08f	0.029495506
239	0xbd92ab33	-0.0716156
240	0x3d0121da	0.031526424
241	0x3dd72162	0.10504414
242	0xbba14b07	-0.004922274
243	0x3d9c353e	0.07627343
244	0x3c346d02	0.011012318
245	0x3cc9bc1f	0.024625836
246	0x3d481b0d	0.048853923
247	0xbd7fb679	-0.06242988
248	0x3c43627d	0.011925337
249	0xbd9a8997	-0.075457744
250	0x3c8b8988	0.017033353
251	0xbd7b92b1	-0.061419193
252	0x3e034cfd	0.12822337
253	0xbcec5446	-0.028848778
254	0xbd641349	-0.055682454
255	0x3d6ff51b	0.05858336

weight_hh_l0 f4 [512, 128]
0	0x3c645943	0.013937297
1	0xbd07452c	-0.03302495
2	0xbc65b759	-0.014020764
3	0x3e150106	0.14551172
4	0xbd70826b	-0.058718126
5	0x3aab315f	0.0013060978
6	0xbd0287b0	-0.031867683
7	0x3dc2236d	0.09479413
8	0xbcd3f882	-0.025875334
9	0x3b918886	0.0044413237
10	0x3b9e6b93	0.004834601
11	0xbd9b9080	-0.075959206
12	0x3c35d1ce	0.011097385
13	0x3d3a9fb5	0.045562465
14	0x3b6a15be	0.0035718526
15	0x3d57bb1b	0.052668672
16	0x3d15212d	0.036408592
17	0xbdb97ef6	-0.09057419
18	0x3b321cf6	0.0027177907
19	0xbdd7ce96	-0.1053745
20	0xbda3a51e	-0.07990478
21	0x3ddf1683	0.10892966
22	0x3d736906	0.05942633
23	0x3d6d1a8d	0.05788665
24	0x3d9aceb4	0.07558957
25	0xbd56ba70	-0.052423894
26	0xbd9fb814	-0.07798782
27	0x3c86dc3f	0.016462443
28	0x3e0997a0	0.13436747
29	0x3d88fb93	0.06688609
30	0xbcc537bd	-0.02407443
31	0xbd56f9c6	-0.052484296
32	0xbd0b4b2d	-0.03400724
33	0x3d1d43ec	0.038394853
34	0x3cbae2c5	0.02281321
35	0xbc6d2f71	-0.014476643
36	0x3db37447	0.087624125
37	0xbd7f52e9	-0.06233493
38	0xbc354ee3	-0.011066171
39	0xbd778bed	-0.060436178
40	0xbd9cbcfc	-0.076532334
41	0xbd8597a4	-0.06523064
42	0xbd50534d	-0.05086069
43	0xbd8bacb4	-0.0682005
44	0xbd749afc	-0.059718117
45	0xbdc07e74	-0.09399119
46	0x3daac369	0.08338053
47	0xbd810a2c	-0.06300768
48	0xbcc11bee	-0.023572888
49	0x3dd580fe	0.10424994
50	0xbdd45ce8	-0.10369283
51	0xbdb932d8	-0.09042901
52	0xbd8606a7	-0.065442376
53	0xbd371e27	-0.04470649
54	0xbd96949f	-0.07352566
55	0x3ab1b869	0.0013558987
56	0x3d4d1ce1	0.05007637
57	0xbd00b057	-0.03141817
58	0x3c190cf3	0.009341466
59	0x3da87d57	0.08227032
60	0x3d974613	0.073864125
61	0xbd9823af	-0.07428681
62	0xbde02d93	-0.109461926
63	0x3d5809ee	0.052743845
64	0x3c96ee53	0.018424189
65	0xbd57a55a	-0.052647926
66	0x3d60fa3e	0.05492615
67	0x3db9925f	0.09061121
68	0x3c389c2e	0.011267705
69	0xbd670837	-0.05640432
70	0xbdc8d34c	-0.09805927
71	0xbd37bf73	-0.044860315
72	0xbd9bbb90	-0.07604134
73	0x3cd463e6	0.025926542
74	0xbd976470	-0.07392204
75	0x3ce79a98	0.028271958
76	0xbdaab4d8	-0.083352745
77	0xbdae9960	-0.08525348
78	0xbcc90c02	-0.024541859
79	0x3d9f95a6	0.07792215
80	0x3d6a5dad	0.057218242
81	0x3c490ee5	0.012271618
82	0xbd0f844d	-0.03503828
83	0xbc976dbb	-0.01848494
84	0x3cc57426	0.024103235
85	0xbc8fa293	-0.017533576
86	0xbc00f2d6	-0.007870397
87	0x3dc10bc9	0.09426076
88	0xbd1f4e18	-0.038892835
89	0xbcb2d396	-0.021829408
90	0xbd8d072e	-0.06886135
91	0xbc30afe3	-0.010784122
92	0x3b9adc27	0.0047259512
93	0x3d05bd0f	0.032651003
94	0xbbfd7eef	-0.007736079
95	0xbcc807ae	-0.024417724
96	0x3d79719c	0.060899362
97	0xbd2854da	-0.041096546
98	0x3dd05d5a	0.101740554
99	0x3d50e9f4	0.051004365
100	0xbd8712bc	-0.0659537
101	0x3d6d1ec1	0.057890657
102	0xbd479441	-0.04872537
103	0x3cc0e77c	0.02354788
104	0x3dacf6f6	0.084455416
105	0x3d13741b	0.0359994
106	0xbdda5164	-0.10660055
107	0x3c64f1b4	0.013973642
108	0xbdc10acc	-0.094258875
109	0xbdfae9f2	-0.12251653
110	0xbd2dd724	-0.042441502
111	0xbdd7d234	-0.1053814
112	0x3d284386	0.04108002
113	0xbcd74369	-0.02627726
114	0xbdb805c2	-0.08985473
115	0x3d5de949	0.054177556
116	0xbd82b1fa	-0.063816026
117	0xbd58d117	-0.05293378
118	0xbd291f09	-0.041289363
119	0x3c9d1d0a	0.019178886
120	0x3d655766	0.055991553
121	0x3d8df875	0.06932155
122	0x3d015799	0.03157768
123	0x3dc3cdab	0.095607124
124	0x3dc06ffb	0.093963586
125	0x3cfeb67b	0.031092873
126	0xbc68f331	-0.014218138
127	0x3d439d3d	0.047757376
128	0xbd9997ba	-0.07499643
129	0xbd8d7405	-0.069068946
130	0x3d4edb6b	0.050502222
131	0xbc9bcee2	-0.019019548
132	0xbd165b61	-0.03670824
133	0xbc5666a6	-0.013085997
134	0xbc9f8218	-0.019471213
135	0xbd665ef5	-0.0562429
136	0xbd978883	-0.073990844
137	0x3d8786f8	0.0661754
138	0x3dcf1cd9	0.10112924
139	0xbda73e13	-0.081661366
140	0xbc9d35e2	-0.019190732
141	0xbd895247	-0.06705146
142	0x3ccb985a	0.02485292
143	0x3d53214b	0.051545423
144	0x3cefd282	0.029275183
145	0x3d74839a	0.059695818
146	0x3cffc51e	0.031221922
147	0xbda4543b	-0.08023878
148	0xbd246b0a	-0.040141143
149	0x3d358ec7	0.044325616
150	0x3d98d163	0.07461812
151	0x3d973ec1	0.07385016
152	0x3db0d6df	0.086347334
153	0xbd1731a3	-0.03691257
154	0x3c9b85f8	0.01898478
155	0xbdd37b0e	-0.10326205
156	0x3d0303a1	0.031985883
157	0x3dc70545	0.09717802
158	0x3cd43cfa	0.025907982
159	0xbdbd5e4b	-0.092465006
160	0xbdbc8c83	-0.09206488
161	0xbd3a43f4	-0.04547496
162	0xbda6f56e	-0.08152281
163	0xbdac6bf3	-0.08419027
164	0x3d2471e2	0.04014767
165	0x3cc02b05	0.023458013
166	0x3dc3ba26	0.09556989
167	0xbd6baa65	-0.057535548
168	0xbdd47d4d	-0.10375462
169	0xbc4aadb3	-0.012370515
170	0xbcec7842	-0.028865937
171	0x3db0644a	0.086128786
172	0xbc9774ff	-0.018488405
173	0x3d0bbdf9	0.03411672
174	0xbd528b1b	-0.051402193
175	0xbc2de43c	-0.010613497
176	0xbd827ca2	-0.06371428
177	0x3b3f62db	0.002920321
178	0x3d588e7b	0.052870255
179	0xbdb6ee02	-0.08932115
180	0x3c286144	0.010277096
181	0x3d44398d	0.047906447
182	0xbdaf8006	-0.085693404
183	0x3d0f92d5	0.03505214
184	0xbc4a7119	-0.012356066
185	0x3da6baf6	0.08141129
186	0xbca7cfd3	-0.02048484
187	0xbcbcac36	-0.023031335
188	0x3ddce8a7	0.107865624
189	0xbbaae730	-0.005215548
190	0x3d4d3d6d	0.05010741
191	0x3da20d87	0.079127364
192	0xbd3eb619	-0.04656038
193	0xbd9d7831	-0.0768894
194	0x3d2a3352	0.04155285
195	0xbc615a07	-0.013754374
196	0xbd906ff2	-0.07052602
197	0xbd1ff809	-0.039054904
198	0x3d8a2753	0.06745782
199	0xbdaa3fdd	-0.08312962
200	0xbda2b7e4	-0.079452306
201	0x3d2e6fc6	0.042587064
202	0xbd853f60	-0.065062284
203	0x3dcd9f7f	0.10040187
204	0x3caefc33	0.021360492
205	0x3b647f00	0.0034865737
206	0x3d9410a9	0.0722974
207	0xbc216dda	-0.009852851
208	0x3c1d48e9	0.009599903
209	0x3dc3c2df	0.09558653
210	0x3cee21a9	0.029068785
211	0x3d6dec8e	0.058086924
212	0xbc8ec7aa	-0.017429192
213	0x3d790a1b	0.060800653
214	0x3d347588	0.0440574
215	0x3c722c8d	0.01478113
216	0xbb5545dd	-0.0032542862
217	0x3d6f7778	0.058463544
218	0x3d9d0faa	0.07669003
219	0xbda2b0f0	-0.079439044
220	0xbdab1240	-0.0835309
221	0x3d795f19	0.060881708
222	0xbda25584	-0.07926467
223	0xbd817b3b	-0.063223325
224	0xbd43273d	-0.047644842
225	0x3c869105	0.016426573
226	0x3d993378	0.0748052
227	0x3b09cec1	0.0021027776
228	0xbdbbe587	-0.09174638
229	0xbaa3ba34	-0.0012491406
230	0xbd1a10cf	-0.037613686
231	0x3cc5fbb1	0.024167867
232	0xbd34d399	-0.044147108
233	0xbcec447e	-0.028841253
234	0xbbfdb630	-0.0077426657
235	0x3d044a3c	0.032297358
236	0x3cb44f58	0.02201049
237	0xbd313374	-0.04326196
238	0x3c1c4acf	0.00953932
239	0xbd6498a1	-0.05580962
240	0xbdae33b0	-0.08505952
241	0xbb7c5498	-0.003850257
242	0xbdd5ebdd	-0.10445378
243	0xbc80710c	-0.015678905
244	0xbd946e25	-0.07247571
245	0xbd15b4b4	-0.036549285
246	0xbd09b8a5	-0.033623356
247	0xbcff7906	-0.031185638
248	0xbab03bdb	-0.0013445573
249	0x3dafd801	0.08586121
250	0x3badde30	0.005306028
251	0x3db263d8	0.0871045
252	0xbcbe3fcf	-0.023223786
253	0xbd344d5c	-0.04401909
254	0x3da37cd8	0.079827964
255	0xbd84244f	-0.06452238
