SilverstoneModelv1.pkl (torch, 501194 bytes, 16 tensors)

weight f4 [9, 10]
000000 a2 74 99 be 5a 88 c2 bd a6 48 9a be 61 4b f2 3e
       -0.29971796 -0.09498663 -0.3013355 0.47323135
000010 85 61 ae bf cf 20 2f bf 6a 92 b4 bf bb 54 95 bf
       -1.3623511 -0.68409437 -1.4107182 -1.1666483
000020 49 7e 87 bf ac ec 9d 3f a4 8a 31 bf 93 96 56 3e
       -1.0585414 1.2337852 -0.69352174 0.20955877
000030 1a d9 24 bf 92 2d 61 bf dd 7c ea be 19 6b 02 be
       -0.6439377 -0.8796016 -0.45798388 -0.12736167
000040 cc c7 00 c0 8b 3d 09 40 e3 b8 8e bf 90 64 06 c0
       -2.0121946 2.1443813 -1.1150173 -2.0998878
000050 cf 15 16 3f 55 5c b0 be fb f9 9d 3d 8e bf 5c 3e
       0.5862703 -0.34445444 0.077136956 0.21557447
000060 e9 a0 95 bf a9 0b a2 bf e7 af ea 3f 20 70 a9 3e
       -1.1689731 -1.2659808 1.8334931 0.33093357
000070 a3 78 39 bf 50 50 25 3e 3c 4d 9b 3a f8 f3 f1 bf
       -0.724497 0.16143918 0.0011848579 -1.8902578
000080 de a9 1c 3f 5f 44 05 3f 7a 82 63 ba 30 42 0b 3f
       0.61196697 0.5205745 -0.00086788053 0.5439787
000090 33 21 bf 3e d3 d0 05 c0 9b a1 82 3d 41 3f ff bd
       0.37330016 -2.0908706 0.0637848 -0.124632366
0000a0 94 fb 77 3f c6 f3 ae 3d ae ec 01 40 b4 9d 0f bf
       0.9686825 0.0854259 2.0300708 -0.5610001
0000b0 61 78 19 bd 4d 31 2e bf 53 49 9d 3e e1 92 d7 bf
       -0.037468318 -0.6804398 0.30720004 -1.6841699
0000c0 71 bc af bf 00 9e a7 3e 48 03 d4 3e b3 04 88 bf
       -1.3729383 0.32737732 0.41408753 -1.0626434
0000d0 74 df a3 bf b3 4b 7e 3e e1 fe 38 be 76 56 02 3c
       -1.2802567 0.24833564 -0.18065979 0.007955184
0000e0 aa b0 1e 3f 79 7a b1 bf 3a 82 91 3f 68 4c 48 3e
       0.6198832 -1.3865501 1.1367867 0.19560397
0000f0 87 b9 66 3f ce e8 89 bf 1a 1b aa be d9 e0 bf bf
       0.9012684 -1.0774171 -0.33223802 -1.4990493
000100 1a a4 a6 be 80 8c 41 bf 6d 48 52 3f 1b d0 1d bd
       -0.32547075 -0.7560501 0.8214176 -0.038528543
000110 93 8a b2 3f d4 79 a7 3e ed 7b a5 be d9 a5 24 bf
       1.394854 0.32710135 -0.3232111 -0.64315563
000120 00 cb a3 3e 40 db 91 bf b0 17 ac 3f 41 8f a2 bf
       0.31990814 -1.1395035 1.3444729 -1.2699968
000130 64 c6 98 bf 7e 2b 69 bf c4 7f 84 3e ed 75 d4 bf
       -1.1935544 -0.9108199 0.25878727 -1.6598488
000140 8a b6 f3 3e 76 cd ec 3e 9f 4d b1 3f ac 86 8a 3f
       0.47600204 0.46250504 1.3851813 1.0822349
000150 d8 c4 59 3d 3f db 10 3f b7 44 06 3f 61 95 fa be
       0.05316624 0.56584543 0.524486 -0.48942092
000160 f2 92 c1 bf bb ef 9f bd
       -1.5122969 -0.07809397

weight f4 [3, 2]
000000 7a ea 62 3d 91 04 9b 3d d8 b9 1b 3f 38 1c df be
       0.055399396 0.0756923 0.6083045 -0.43576217
000010 e4 a6 3a 3f d2 86 3a be
       0.72910905 -0.18215492

weight f4 [4, 3]
000000 f5 db 08 3e db 3b 85 bf b9 a1 e7 3e 6c 0b 17 3f
       0.13365157 -1.0408891 0.45240572 0.59001803
000010 8b e6 d0 3e 93 68 8d be 27 47 21 be 62 86 48 3f
       0.4080089 -0.27618846 -0.15749799 0.7833005
000020 d1 88 21 3f 20 23 9a 3f 23 39 73 3e e7 53 d5 3f
       0.6309939 1.2041969 0.23752265 1.666623

weight f4 [8, 2]
000000 e6 01 19 be 18 7f 6d 3d da 60 99 3e 9e 29 0e bf
       -0.1494213 0.057982534 0.29956704 -0.5553225
000010 6b bd 7d 3e 61 bc 6a be db 41 ab 3e c4 19 a3 3e
       0.24779288 -0.22923423 0.3344868 0.31855595
000020 60 c4 95 bd 91 41 78 3e f0 a0 cb be dd 9c 93 be
       -0.07312846 0.24243762 -0.39771223 -0.28830615
000030 9c 2b 1b 3c b3 13 1b be 76 bb 10 bc 8d 58 51 be
       0.0094708465 -0.15144233 -0.008833757 -0.20443936

bias f4 [8]
000000 79 4f 51 be 67 23 4f bd 7c 04 d7 be 7c 89 2a bf
       -0.20440473 -0.05057087 -0.4199561 -0.66616035
000010 1c 12 7e 3d ef b2 02 3e 4f c7 49 3f 47 bd 36 be
       0.06202899 0.1276357 0.78819746 -0.17845641

weight_ih_l0 f4 [256, 12]
000000 89 9a 53 be 23 b9 92 bc 91 1f b0 bd 8a 52 99 3d
       -0.20664419 -0.017910546 -0.08599771 0.07486446
000010 b7 ab 94 bd d2 4b 64 bd 36 73 b7 3d 26 10 da bc
       -0.072593145 -0.05573637 0.089575216 -0.026619028
000020 b8 b2 92 3c eb 96 74 3d 6d be 93 3d 5b b4 19 bd
       0.017907485 0.05971424 0.07214055 -0.037525516
000030 b5 b6 a2 be b7 34 de bd 14 7e 10 bc d5 d2 11 3d
       -0.3178002 -0.10849898 -0.008819122 0.035601456
000040 1f 83 27 be f6 fa 46 3d 9d 9a c5 bd 50 c9 9d bd
       -0.16358612 0.04857918 -0.09648631 -0.07704413
000050 00 a3 ce 3c 5d b7 69 bd 28 4c 48 3d e2 46 4c bd
       0.025224209 -0.057059634 0.048900753 -0.049872287
000060 88 e8 b0 bd 1f ce 62 3d be f1 2b 3d 04 5b a1 3d
       -0.08638102 0.055372354 0.04197859 0.07878688
000070 a0 7f 6c 3d b4 50 e0 bd 3b 28 18 3d a8 6f 1a 3e
       0.0577389 -0.10952893 0.03714774 0.15081656
000080 ca a1 07 3e 0e bc 00 3d ed 76 60 3e d2 53 39 be
       0.13245311 0.031429343 0.21920367 -0.18098381
000090 b8 73 b9 3d 2f d3 21 be e6 87 47 be 34 ff 15 be
       0.09055275 -0.15803216 -0.19485435 -0.14648134
0000a0 80 60 e7 bd e6 81 b5 bc 4f 8e 83 bb 27 af 1a bd
       -0.11297703 -0.022156667 -0.0040147672 -0.037764695
0000b0 e5 fe e0 bd 95 16 49 be 59 46 38 3d 29 cf 4c be
       -0.10986117 -0.1963752 0.044988964 -0.200009
0000c0 9e b0 0d be e9 1a 36 be f9 cd 16 be 2b fa be bd
       -0.13836905 -0.17783703 -0.1472701 -0.093250595
0000d0 33 50 c6 bd 54 87 a6 bc 26 2a 2e bc c1 c2 8c bd
       -0.096832655 -0.020328201 -0.010630166 -0.06873084
0000e0 1a 53 67 3c d7 99 30 bd df c0 68 be f9 e3 b6 3c
       0.014118934 -0.043115463 -0.22729824 0.022325503
0000f0 54 38 28 bd c9 f9 a5 bd 1f 89 94 bd 93 ba 59 3c
       -0.041069344 -0.08104283 -0.07252716 0.013289112
000100 21 ba c1 bd a9 be 28 3c 5f de 54 be f6 11 ca bc
       -0.094593294 0.010299363 -0.20787953 -0.024666768
000110 3e f5 42 bd ff 65 bc bd 08 45 5a be 0f 08 e4 bc
       -0.047597162 -0.09199142 -0.21315396 -0.027835874
000120 7a 6d 20 bd c2 4d 30 bd 28 ff ea bd e7 23 c0 bd
       -0.039166905 -0.043042906 -0.114744484 -0.09381848
000130 d5 13 cd bd 6e a6 51 3d 15 48 70 3d d3 d4 72 bc
       -0.10013548 0.05118411 0.058662493 -0.014821249
000140 3f 48 20 be da 1b 13 be 4c 90 69 be d3 79 47 3d
       -0.1565256 -0.14366093 -0.22808951 0.048700165
000150 87 e0 35 3e e9 2f a3 bd 85 ab 05 be b1 57 1b bd
       0.17761432 -0.079681225 -0.13053711 -0.037925426
000160 75 07 e5 bd 05 46 eb bb 56 96 2a bd 14 de 64 3d
       -0.11183063 -0.007179978 -0.041647278 0.055875853
000170 ba 4b 0a be f4 a6 0c be 9b 12 82 bd 18 be 05 be
       -0.1350545 -0.13735563 -0.06351205 -0.13060796
000180 85 0f aa 3b 56 ab 2e 3d 46 46 6f bd 77 87 41 3d
       0.0051898384 0.042643867 -0.058416627 0.04724833
000190 a1 00 59 bd c7 76 f7 bd c4 cd 54 3e 25 89 1a bc
       -0.052979115 -0.12083202 0.20781618 -0.009432112
0001a0 37 6b 89 bd 47 e8 45 bc 77 7f 77 bd 01 25 b1 3d
       -0.06709903 -0.012079305 -0.060424294 0.08649636
0001b0 98 7a 69 be 01 46 f6 bd e0 7f 5d bd c3 41 ef bd
       -0.22800672 -0.12025071 -0.05407703 -0.11682465
0001c0 44 d5 38 3e 18 c0 27 3e ba bf 5b bd 60 40 bb 3c
       0.18050104 0.16381872 -0.05364964 0.022857845
0001d0 55 81 ac 3c fe 28 92 bc 05 84 36 3c 38 ed 0c be
       0.021057764 -0.017841812 0.011139874 -0.13762367
0001e0 2d af 42 bd da 11 15 be 77 09 30 be 68 2c 38 bd
       -0.047530342 -0.14557591 -0.1719111 -0.044964224
0001f0 d1 64 32 be 5f b5 34 bd 27 46 2b 3e fb 94 14 3d
       -0.17421271 -0.04411828 0.1672598 0.03627489
000200 ca 51 b7 3c 86 c5 7a 3d 6c 35 84 bc bd f2 21 be
       0.022377867 0.06122353 -0.016138755 -0.15815254
000210 43 35 c3 3d 65 37 1e be 2e 2e b2 bd 4d f5 c7 3d
       0.09531643 -0.15450819 -0.08700214 0.09763584
000220 9b 17 5f be a1 41 e4 3d da b6 16 bd 1f d8 05 bb
       -0.21786349 0.1114533 -0.036795475 -0.0020423008
000230 79 59 bd bd a4 ab b9 bd 52 18 06 be a0 5c d9 bd
       -0.09245581 -0.09065941 -0.13095215 -0.1061337
000240 17 2a 3c be 14 06 cf bd 23 f1 9e be 0d b9 73 be
       -0.18375431 -0.10108581 -0.31043348 -0.2380106
000250 d1 68 80 be 04 6c 2e 3d 4d 7f 1f bc 25 6d 20 be
       -0.2507997 0.04258348 -0.009734941 -0.15666635
000260 00 6a 92 bd 8e a9 6d be 8e 0f 31 be 1c 12 12 be
       -0.07149124 -0.23209211 -0.1729109 -0.1426472
000270 34 68 12 3e 25 37 02 be eb 0a 46 bd b2 82 3a be
       0.14297563 -0.12716348 -0.048350256 -0.18213919
000280 31 de 19 be 44 e2 a7 3d 3e b3 2e 3e 8c 04 6b bd
       -0.15026166 0.081974536 0.17060563 -0.057377383
000290 16 d0 9d 3d ca d0 e9 bb 8b 63 63 3d 53 18 c8 bd
       0.07705705 -0.0071354853 0.055514853 -0.097702645
0002a0 f6 19 48 3e 39 0d 1b 3d 20 12 c8 bd 82 f9 93 3d
       0.19541153 0.037854407 -0.09769082 0.07225324
0002b0 70 29 69 3d 13 21 cd 3d 70 9d 04 bc 4b b2 c8 3d
       0.056924284 0.10016074 -0.008094177 0.09799632
0002c0 0c 18 7b 3d 1a 7b ce bd de f9 03 3e 44 88 3c bd
       0.06130223 -0.100820735 0.12888286 -0.04602839
0002d0 55 9a 1d be 20 99 8c bc e1 f5 0f be e6 86 24 be
       -0.15390904 -0.01716286 -0.14058639 -0.16067085
0002e0 87 2c a6 3d f0 0a 65 bd e8 16 bc bd 08 b7 02 be
       0.08113962 -0.055918634 -0.091840565 -0.12765133
0002f0 cc aa 46 be a8 86 41 be ac 92 3b be 52 17 e5 3c
       -0.19401091 -0.18899024 -0.1831767 0.027965222
000300 9e 71 34 be a0 2e 7c 3d c3 15 43 3e 17 f9 44 3d
       -0.17621467 0.061567903 0.1905127 0.048089113
000310 01 4f 6a 3c 77 13 9a bd c6 c3 e6 bc d5 d3 ee 3d
       0.014301063 -0.07523244 -0.028169524 0.116614975
000320 52 0d 20 3e 01 bf 16 bb 4c d9 76 3b 72 0e 21 3d
       0.15630081 -0.002300203 0.003766614 0.039320417
000330 d3 1c 68 bd 5f 11 28 be f5 bf e8 bc f6 31 39 be
       -0.056668114 -0.16412877 -0.028411845 -0.18085465
000340 29 a8 d8 bd 28 83 93 3d 24 e5 8a bc 31 4c 8d bd
       -0.10578949 0.072027504 -0.016954966 -0.06899298
000350 9d f3 00 be af fe 70 be b1 6d 3c 3c a7 89 21 be
       -0.12592931 -0.23534654 0.011500762 -0.15775166
000360 37 9c 48 be bc 78 3d be 5e 6c 96 bd bf cb 79 3d
       -0.19590841 -0.18503088 -0.07344888 0.060985323
000370 cf 05 e1 bd d4 7c 0a 3e f7 47 66 3d 93 b2 10 be
       -0.10987436 0.1352418 0.056220975 -0.1413062
000380 01 44 03 bc da 9c f1 bb 57 f0 99 bd b8 da a6 bd
       -0.008011819 -0.0073734345 -0.07516544 -0.08147186
000390 32 bf b3 3c e0 4c 8d 3c d4 7a b3 3d a5 7e 33 be
       0.021941755 0.01724857 0.08763662 -0.1752878
0003a0 79 8d f0 bc c6 9d 0a be 63 ec a0 3d 38 a2 57 bd
       -0.029364334 -0.13536748 0.07857587 -0.05264494
0003b0 a8 85 02 be da 76 f4 3d 2c fc 18 3d 55 2d 18 3e
       -0.12746298 0.11936732 0.037349865 0.14861043
0003c0 31 05 2a bd c7 3f 08 3d a1 39 dc bd 0c 84 93 bd
       -0.041508857 0.033263948 -0.10753179 -0.0720292
0003d0 3d 4a c3 bc 1c e3 65 bc 3f a0 cb 3d 88 27 61 bd
       -0.02383911 -0.014031198 0.09942674 -0.05496934
0003e0 dd eb 35 3d 35 44 39 3d 5f 68 5b bd a0 e9 d4 bd
       0.04441439 0.045231063 -0.053566333 -0.10396123
0003f0 c1 29 3e be da 0c 79 be be 38 8d be 03 ec a6 bd
       -0.18570615 -0.24321309 -0.27582353 -0.081504844

weight_hh_l0 f4 [256, 64]
000000 92 44 bc bd 73 38 ab 3d d5 b0 ab bd 26 8a 9c 3c
       -0.09192766 0.08360376 -0.083833374 0.019108843
000010 4b ad e9 3d c0 f7 d3 bb 10 78 6c 3d a1 b8 f9 3c
       0.11410006 -0.006468743 0.057731688 0.030483546
000020 fc ae c3 3d 6b 46 5d bd 8c 6f 67 bd ec 69 67 3c
       0.0955486 -0.054022234 -0.056502864 0.014124375
000030 c9 61 89 3d 04 87 35 bd 68 a3 21 be b4 c9 86 bc
       0.06708104 -0.044318214 -0.15784991 -0.016453601
000040 37 38 34 3e 32 26 02 be a4 7c 09 38 b2 8b 08 3e
       0.1759957 -0.12709883 3.2779426e-05 0.1333454
000050 fc bc ec bd 2f c2 55 3d 6b bf 42 be 69 77 0a be
       -0.115594834 0.05218714 -0.19018333 -0.13522114
000060 5d a6 36 3e 7f 8a 95 3b c9 31 ec bd 5f 4f ee 3d
       0.178369 0.004563629 -0.11532933 0.116362326
000070 4d 2d a8 3b 1c 86 d5 3d 4f 2c 1f 3b cb 80 ef bc
       0.0051323534 0.1042597 0.0024287885 -0.029236218
000080 a2 64 cd bd 9b 13 0a 3c 3e a7 15 3e fd 18 b4 3c
       -0.1002896 0.008427526 0.14614579 0.021984572
000090 c4 fe cb 3d af 0c 90 3c ab 4d 85 bd 54 e6 9c 3b
       0.09960702 0.017584173 -0.065089546 0.0047881994
0000a0 30 b7 32 3c 5a 2b f9 3d 5d 63 25 bd f6 16 81 3d
       0.010907933 0.12166472 -0.040377963 0.063032076
0000b0 60 a9 26 3e 29 50 14 be 0c ea c8 bd 7b 72 0c 3c
       0.16275549 -0.14483704 -0.09810266 0.008572216
0000c0 3c 95 d7 bd 3f ba c5 bd f2 06 81 3d bb 9c c3 bd
       -0.10526511 -0.09654664 0.06300153 -0.09551378
0000d0 a5 64 54 3d 7a da b4 bd 94 df b1 3d fa 8c 90 3e
       0.051853795 -0.088307336 0.08685222 0.28232557
0000e0 f4 b9 09 be 07 92 a0 bc e5 47 60 bd 79 df 23 be
       -0.13449842 -0.019600881 -0.054756064 -0.16003217
0000f0 d6 4a 9b 3d 9a d9 de bd 23 e6 37 be 59 48 a9 ba
       0.07582633 -0.10881348 -0.17958884 -0.0012915238
000100 15 f6 e5 3c 57 7c 63 bb ab 86 ac 3d 76 66 dc bd
       0.028071443 -0.0034711563 0.084241234 -0.107617304
000110 c9 99 82 bb bf 27 7c bd 0a 07 e5 ba c2 1c 9d bb
       -0.003985618 -0.061561342 -0.0017473411 -0.004794688
000120 dc 4f 1b 3c 24 9a 2f bd 20 fd 38 bd 99 18 ce bd
       0.009479489 -0.04287161 -0.045163274 -0.100632854
000130 e8 c7 f2 3b 4f 6d 5f bd 07 06 07 be dd 8f 93 bd
       0.0074090846 -0.054547604 -0.13185893 -0.07205174
000140 6e 4e 09 3e 11 dd 17 3e ce 3c 33 bd 64 2c da 3c
       0.13408825 0.14830424 -0.04375916 0.026632495
000150 83 21 ac 3c e4 ed 4d 3d 08 ff d2 bd 68 57 a4 bd
       0.021012073 0.0502757 -0.103025496 -0.08024484
000160 3e 5b 9d bd bc 75 3e 3d d9 f2 cf 3d a2 0b ab bc
       -0.07683419 0.046499 0.101537414 -0.02087957
000170 af 68 04 be af 1c 41 3d 0e 5f 7e 3d 42 c2 68 3d
       -0.12930559 0.047146495 0.06210237 0.056825884
000180 e6 c2 d4 3c 80 4b 07 be 93 b1 fd 3d 4c 9c d7 bd
       0.025971841 -0.13212395 0.12387385 -0.10527858
000190 90 3c 05 bc c5 f2 fe bd ef cf ae bd 16 21 e0 bc
       -0.008132115 -0.12448648 -0.08535754 -0.027359527
0001a0 38 6f 25 3d 9f 28 21 bd 58 ce 71 bd f7 7b 9c 3d
       0.04038927 -0.03934538 -0.059034675 0.07640832
0001b0 9d 95 ad 3d 27 23 b5 3c 7f e3 66 3d 22 ab ee 3c
       0.08475802 0.022111489 0.0563693 0.029134337
0001c0 b4 c4 9a bb 7f aa c3 3c 19 5b d2 bd d9 86 bd bd
       -0.004723156 0.02388501 -0.10271282 -0.09254236
0001d0 67 54 e5 bb 20 93 9a bd 12 0e fc bd f8 4e b7 bc
       -0.006998587 -0.07547593 -0.12307371 -0.022376522
0001e0 36 5e 0c be 31 5b 04 be 9e da 63 bb 32 16 c5 3c
       -0.13707814 -0.12925412 -0.0034767757 0.024058435
0001f0 d7 3b b6 3d 63 b1 c2 3c ca f3 33 3d 2a 50 2a bd
       0.08898132 0.023766225 0.043933667 -0.041580357
000200 7d b3 f7 3d f8 08 1e bd 04 66 00 bd ee d0 39 be
       0.120947815 -0.038582772 -0.03134729 -0.18146107
000210 61 61 b0 bc 10 c0 c7 bc 5a 7d 33 be 51 90 81 bd
       -0.021530809 -0.024383575 -0.17528287 -0.06326354
000220 0d 4e 41 bc 2a dd 84 3c 3a e2 6d 3d 32 39 98 3d
       -0.011798394 0.01621874 0.058077075 0.07432784
000230 35 ee 04 be 9f 94 28 3e 54 1b 10 be 52 4d 59 bd
       -0.12981494 0.16462944 -0.14072925 -0.053052254
000240 d5 81 08 3e dc 05 cc bc ca 8d 20 be 0e 86 38 3d
       0.13330777 -0.024905138 -0.15679088 0.04504972
000250 09 c4 3c be 50 31 cd bd f2 2c 21 be 4e 16 58 3d
       -0.18434156 -0.10019171 -0.15739802 0.052755646
000260 56 1b 6b 3e 27 58 02 bd d5 bb 43 bd 21 6a 0d 3e
       0.22959647 -0.03182235 -0.047786552 0.13810016
000270 48 de 09 bd 92 04 a3 3d 68 90 20 be e4 41 88 be
       -0.03365925 0.07959856 -0.15680087 -0.2661277
000280 9c 9a 99 bd 9e 9d d2 bd ed 6f 95 bd 25 1c 51 be
       -0.075001925 -0.10283969 -0.07296739 -0.20420893
000290 be 58 2d 3e 54 44 12 be 96 80 f8 3d 0d e9 25 3d
       0.16928384 -0.14283878 0.12133901 0.040505458
0002a0 9b 78 19 3d 00 e6 1c 3d 85 f1 2c 3d b4 18 a1 bc
       0.037468534 0.038305283 0.04222252 -0.0196651
0002b0 63 a8 24 3e 93 df 22 be a7 99 41 be d6 8b 0d bb
       0.1607986 -0.159056 -0.1890627 -0.0021598241
0002c0 dc d1 2a be 20 69 89 bd 85 cb 8e 3d 72 f4 a3 bc
       -0.16681617 -0.06709504 0.06972412 -0.020014022
0002d0 aa e2 58 bd 2a 95 12 be 44 55 78 3e b6 40 29 3e
       -0.05295054 -0.14314714 0.24251276 0.16528592
0002e0 c2 0e 9f bd b0 45 9b 3d 63 fd f1 3d d9 f5 85 be
       -0.07766487 0.07581651 0.11815908 -0.2616413
0002f0 82 7f 47 bc 87 3c 82 3d 84 f5 61 be 5e 97 37 be
       -0.012176396 0.06359201 -0.22066313 -0.17928836
000300 5e 61 11 be d5 19 47 3d c1 d7 b6 bd 52 40 7c bb
       -0.14197299 0.04860862 -0.089278705 -0.0038490486
000310 7d b0 12 3e 59 ca d8 3c 14 62 c9 3d 86 11 2f 3d
       0.14325137 0.026463674 0.0983316 0.04274132
000320 0f a5 c1 3d 6c 54 5f 3d 07 ae 1c bd d8 23 95 bc
       0.094553106 0.05452387 -0.038251903 -0.018205568
000330 96 fe 4f 3d 40 fd c8 bc d3 4e c5 3c 84 84 09 3d
       0.0507799 -0.024534822 0.024085438 0.033573642
000340 de 26 74 bd b9 74 74 3d 81 48 44 bc e1 31 9f 3d
       -0.05960738 0.059681628 -0.011980177 0.077731855
000350 eb 74 f5 3d a9 56 51 3d 21 6b 53 b9 71 ce d7 bd
       0.11985191 0.051108036 -0.00020162437 -0.105374224
000360 e3 41 ce bd d0 97 0d 3d d2 7e 8d 3d b0 6b af 3d
       -0.10071161 0.034568608 0.06908955 0.08565462
000370 49 23 a4 3d d5 e7 8d 3d 06 8b 1b 3e f7 52 02 bd
       0.080145426 0.06928984 0.15189752 -0.031817403
000380 12 6c a3 3c d8 27 56 be 63 9c bb 3c a1 51 01 3e
       0.019948993 -0.20913637 0.02290172 0.12628795
000390 e1 a4 b5 bd 84 b2 56 3d 2e bd e0 bd 39 9d da bc
       -0.08869339 0.05241634 -0.10973583 -0.026686298
0003a0 76 c1 6e bc c4 73 7a 3d 91 22 89 3d cb fa 50 bd
       -0.014572492 0.06114556 0.06696046 -0.051020425
0003b0 dd cb 8a bc ff 01 f5 3d ba d8 c7 bb a4 3d 81 bd
       -0.016942913 0.11963271 -0.006098834 -0.06310585
0003c0 02 5d 06 3e 23 a3 8f 3d 63 3e 5a 3c 70 12 c2 bd
       0.13121417 0.07013538 0.013320538 -0.09476173
0003d0 a8 13 1e be f3 c0 d2 3d 78 0c 08 bc a8 b2 3b bd
       -0.15437186 0.102907084 -0.008303754 -0.045824677
0003e0 46 13 c9 3d 8c a8 09 3e 68 01 a4 3d 3d ed f8 3d
       0.09818129 0.13443202 0.08008081 0.121546246
0003f0 e7 1c 02 be 3d 22 a8 bc c2 78 7e 3d 25 7e 63 3c
       -0.12706338 -0.020524139 0.062126882 0.013885056

bias_ih_l0 f4 [256]
000000 23 76 a1 3d 1a e5 0a 3d 47 78 3e 3e 0f 3d 28 bd
       0.07883861 0.033909895 0.1860057 -0.041073855
000010 25 11 5f be c8 8e 13 be c9 09 26 be bb 06 0f be
       -0.21783884 -0.14409935 -0.1621467 -0.13967411
000020 82 b3 82 bd 7b 0b c2 bd 76 6b 00 bd 68 e5 1f bd
       -0.06381895 -0.09474846 -0.031352483 -0.03903714
000030 f2 11 19 be 9c da 9c bd c6 c5 45 3d 08 51 30 bc
       -0.14948252 -0.07658884 0.048284315 -0.010761507
000040 cc f1 26 3e ec e8 fb 3b 9a 4b 17 3d 0f 7f 63 3d
       0.16303176 0.0076876786 0.036937334 0.055541094
000050 1b cb 06 be 37 c8 f1 bd 94 92 ea bc 7d 2e 4b 3d
       -0.13163416 -0.11805766 -0.028634347 0.04960488
000060 9a 9a ef 3d ae 41 66 be 0d 1f 24 be 78 6e c8 bc
       0.1169941 -0.22485992 -0.1602747 -0.024466738
000070 2e f9 f0 bd 5a 28 1b bd 39 21 70 bd 82 5c 19 be
       -0.11766277 -0.03788028 -0.058625434 -0.14976695
000080 a7 d1 9e 3c 2f 7b 06 be 1f 47 97 bb 39 c1 26 be
       0.01938708 -0.13132928 -0.0046166326 -0.16284646
000090 53 59 01 bb d7 32 48 3d 0c 98 17 be 38 ee 35 ba
       -0.001973708 0.04887661 -0.14804095 -0.00069400994
0000a0 f2 a3 b5 3c e9 33 34 be 57 f9 68 3d 8c e5 a8 bd
       0.022172902 -0.17597927 0.056878414 -0.082469076
0000b0 3a b0 bf bc 3a bb f8 bd 4c ac 03 bc e2 b2 65 3d
       -0.023399461 -0.12145086 -0.008036684 0.0560788
0000c0 05 1a 57 bd 29 e6 3e ba 17 fe 3b be c9 8a e3 bd
       -0.05251505 -0.00072822213 -0.18358646 -0.111104555
0000d0 fa cb 42 be 34 16 13 bd 69 60 64 ba ff 09 37 3d
       -0.19023123 -0.035909846 -0.0008711876 0.044687267
0000e0 22 8d 18 bd b3 d0 9e 3d 01 7a b2 bd 32 48 ce 3d
       -0.03724397 0.0775465 -0.08714677 0.10072364
0000f0 d5 f2 69 3c 0c 38 50 3c 58 9f 23 be f9 e5 f7 bc
       0.014279087 0.012708675 -0.15978754 -0.030261027
000100 8f 9f 01 3d 3a ea f0 3c 59 ba ed 3d df 41 c8 bd
       0.031646308 0.029408563 0.116078086 -0.09778189
000110 cc 72 a3 bd 6d 41 39 3c 92 16 2c be da 01 40 bd
       -0.0798088 0.011307103 -0.16805485 -0.046876766
000120 c8 fa 05 be 10 12 e6 bd 0f f8 0f be 69 35 c3 bd
       -0.13083947 -0.11233914 -0.1405947 -0.095316716
000130 be 3d b0 bd ba cd 07 bd f3 c6 eb 3d ce b3 38 be
       -0.086055264 -0.03315518 0.11512556 -0.1803734
000140 3b ad df 3d 7f 8d 82 bd 1f bf 00 bd 87 7b b6 3d
       0.10921713 -0.063746445 -0.031432267 0.0891028
000150 25 92 83 bd 78 0d dd bd 25 71 f8 3d 4d b1 e1 bd
       -0.06424359 -0.107935846 0.121309556 -0.110201456
000160 6b 2e 9e 3d b6 3b 4c bd a9 98 f5 bc 07 0e 2d 3d
       0.07723697 -0.049861632 -0.02998002 0.042249706
000170 21 ae f1 bd 3c 61 ea 3c aa e2 9d 3c 52 2e 81 bc
       -0.118007906 0.028610818 0.01927312 -0.015769158
000180 45 a7 00 be 12 48 83 bd a5 40 01 3d f0 66 99 bd
       -0.12563808 -0.06410231 0.03155579 -0.07490337
000190 f9 1e bf bc 74 90 b5 bd 45 1b bd 3c 05 b8 91 bd
       -0.023330199 -0.08865443 0.023084292 -0.07115177
0001a0 8e 04 15 bc 5b 0d 19 be 9b fa 1d bc 00 8d 0c 3d
       -0.009095324 -0.14946501 -0.0096422685 0.034314156
0001b0 34 73 b0 3d 03 a6 13 3c fb 4f a7 bb 5f b3 04 3d
       0.08615723 0.009011748 -0.00510597 0.032397624
0001c0 f6 f1 d4 bd b7 e8 e1 3d eb e3 e3 bd c9 e7 20 3d
       -0.10397713 0.11030715 -0.11127456 0.039283548
0001d0 12 42 2f 3d 35 11 43 bd f4 99 b2 3d b4 1a d3 3b
       0.04278762 -0.04762383 0.087207705 0.0064423922
0001e0 1f 2a 34 3c 58 db a0 3b 05 2e 08 3c 67 91 b9 3d
       0.010996371 0.0049089603 0.008311753 0.090609364
0001f0 d6 76 80 bd a9 dc 02 bd 0a 44 8e 3c 1d d0 36 bd
       -0.06272666 -0.03194872 0.017366428 -0.044632066
000200 d0 6a c7 bd f6 48 12 3d 24 41 e9 bd f3 91 9b bc
       -0.0973717 0.035714112 -0.11389378 -0.018990492
000210 72 07 4b bd 74 72 91 3d 1f 2b 7d bd 99 b2 35 3d
       -0.049567647 0.07101908 -0.0618087 0.044359777
000220 15 69 c8 bc fe d5 da 3d cd 57 a5 bd 2e 5f 30 bd
       -0.02446417 0.10685347 -0.08073387 -0.04305952
000230 68 15 e9 bd 4b 68 ba 3d 03 76 65 3d 70 61 fc bc
       -0.11381036 0.091019236 0.056020748 -0.03080818
000240 20 4f b0 3c da ee bb 3c 52 69 e8 3d 67 c4 a5 3d
       0.021522105 0.022941042 0.11348213 0.080941014
000250 8d d7 35 bd 4c 08 7b 3d 95 e3 28 3d a8 3a 47 3d
       -0.04439502 0.06128721 0.041232664 0.048639923
000260 b8 64 f0 bd c4 8a 74 3d b0 be 18 3d f3 49 a3 bd
       -0.117379606 0.05970265 0.03729123 -0.07973089
000270 6d fb 87 3c e5 8a ed 3d 41 af 91 3d ec 2e 12 3a
       0.016599381 0.11598758 0.07113505 0.000557645
000280 77 a1 ae 3d 30 31 92 3d de c1 fd 3c e9 d7 2a 3d
       0.08526891 0.07138288 0.030976232 0.041709814
000290 65 69 a5 3d ce 83 cd bc 8f 19 87 3d 1d 1d 53 3d
       0.08076743 -0.025087263 0.06596672 0.051541436
0002a0 be 00 93 bd b6 99 56 3d 52 75 d9 3c 6a c9 be 3c
       -0.07177876 0.052392684 0.0265452 0.023289401
0002b0 77 48 dc bd 6c 13 2e bc 6d da fb 3d 6a 23 5b 3d
       -0.10756009 -0.010624748 0.12297521 0.05350057
0002c0 ac 12 bc bd 60 2d 3e 3d d5 f6 12 3d 2f 13 0b bc
       -0.09183249 0.04642999 0.03587993 -0.00848846
0002d0 7d a1 23 bd ba 45 f3 bd 10 95 7f 3c 95 49 3c bd
       -0.03994893 -0.11878534 0.015599504 -0.04596861
0002e0 16 66 20 3b 18 4c 0b 3e 55 f2 13 bd fc 84 2a 3e
       0.002447491 0.13603246 -0.036119778 0.16652292
0002f0 00 43 c7 3d 80 20 c0 3d 94 a6 e0 3d f5 2f b7 3d
       0.09729576 0.09381199 0.10969272 0.08944694
000300 e4 b1 83 3d 62 93 9b bd 7a e7 10 bc b7 39 ca bc
       0.06430414 -0.075964704 -0.008844251 -0.024685724
000310 aa ad 4d be d6 23 e2 bd 56 f5 3c be ca 4f f5 bb
       -0.20085779 -0.110419914 -0.18452963 -0.0074863182
000320 e3 91 73 bd 0c 27 9c bd c0 9b 93 bd 87 6c 7c bd
       -0.0594653 -0.07624635 -0.07207441 -0.061626937
000330 99 5d 0d be 8d 3c 35 bd 46 18 5d 3d c8 07 d5 bc
       -0.13805236 -0.0442472 0.053978227 -0.026004687
000340 55 23 89 3d 6b 30 58 be 03 0a 8b bc 5e ed bf 3b
       0.06696192 -0.2111222 -0.016972547 0.005857154
000350 33 95 05 3d fa a1 c4 bc 1c fa 01 3e b6 46 8f bc
       0.03261299 -0.024003018 0.12693065 -0.017489772
000360 b0 67 6d bb 4c a7 50 bd e0 25 01 bd af 86 e8 bd
       -0.0036225133 -0.050940797 -0.03153026 -0.11353814
000370 c4 4b e2 bc aa e8 94 3d b8 d4 90 3d be e6 ca 3d
       -0.027624018 0.0727094 0.07071823 0.09907292
000380 40 ea fc bc ef 74 90 3d a4 d2 cc bc d7 5b 26 bd
       -0.030873418 0.07053553 -0.025002785 -0.04061493
000390 e8 4f b2 bd 2d 42 1b 3d 43 20 5c be 8c 4f 27 3d
       -0.08706647 0.037904907 -0.21496682 0.040847346
0003a0 53 cc be bc ac 9e 28 be 69 41 01 be 1f bb 11 be
       -0.023290789 -0.16466779 -0.12622608 -0.14231537
0003b0 1f 46 81 bd 0d 58 92 3d 55 3f d6 3a bf 58 8b bd
       -0.06312203 0.071457006 0.0016345779 -0.06804036
0003c0 ec 51 f9 bd a3 db c7 3c f4 8e 27 be 07 42 44 be
       -0.121738285 0.024396723 -0.16363126 -0.19165812
0003d0 dd cb a2 bd 77 66 36 be 8f 42 ce bc 8e 1f 6b bd
       -0.0794904 -0.17812525 -0.025178222 -0.05740314
0003e0 09 32 37 be ca 1c b8 bd 25 9b 5e bc fb f2 04 bc
       -0.1789018 -0.08989866 -0.013586794 -0.008114572
0003f0 c3 9e be bd d1 ee 65 3d 0c 1f 2c 3b 80 57 a6 bd
       -0.09307625 0.056135956 0.0026263623 -0.08122158

bias_hh_l0 f4 [256]
000000 41 ac a5 3c 85 77 16 be 62 f6 16 3e 6c ba a1 3c
       0.020223739 -0.1469403 0.14742425 0.019742213
000010 58 6c ce bc ef ba 3d be 35 c9 ad bd 6a a1 95 bd
       -0.025198147 -0.18528341 -0.08485643 -0.07306178
000020 a5 74 9e 3c cd 99 92 bd 07 24 90 bd 9e 01 d8 3c
       0.01934273 -0.071582414 -0.07038122 0.026367959
000030 5a 0e 04 be 96 50 0c bc 21 9f 5e 3d d7 f0 1a be
       -0.128961 -0.008564135 0.054350976 -0.15130936
000040 de c2 eb 3d c5 b2 2e be 3a 32 26 be b5 2a bb 3d
       0.11511777 -0.17060383 -0.16230097 0.09139005
000050 48 32 e4 bd ef f5 04 be 62 0f e7 3d 7d eb ab bd
       -0.11142403 -0.12984441 0.11282231 -0.08394525
000060 8a 01 d2 3b 60 76 70 bd 6e f0 9e 3d b4 9a 15 3c
       0.006408875 -0.05870664 0.07760702 0.009131122
000070 6d 47 d9 bd 69 9e 7d 3b 8a c7 f6 bc 58 54 d0 bb
       -0.106093265 0.0038699156 -0.030124445 -0.006357711
000080 dc 76 9d bd 65 42 9f bd 96 c4 d7 bb a4 9c 8c bd
       -0.07688686 -0.077763356 -0.006584714 -0.06865814
000090 42 e5 64 3d 67 89 9c 3c 2a 69 85 bb f3 14 10 3d
       0.0558827 0.019108487 -0.0040713744 0.03517623
0000a0 b7 1a a2 bd 79 66 9a bd 76 d5 0e 3c 75 06 bc bd
       -0.07915252 -0.07539076 0.008717885 -0.09180919
0000b0 f0 61 c3 bd 07 99 82 3d 77 ca a0 3d 0f b6 ad bd
       -0.095401645 0.06376844 0.07851117 -0.084819905
0000c0 c1 b0 50 3d 33 05 6b bd 71 72 63 be c4 21 32 be
       0.050949816 -0.057378005 -0.22211625 -0.17395693
0000d0 25 95 73 3c be 9b f7 bd cc c6 50 3d 09 91 e2 3b
       0.014867102 -0.12090252 0.050970837 0.006914262
0000e0 16 9e 33 bd f6 6f f2 3c a9 46 2d bd 5c f4 61 3e
       -0.043851934 0.029594403 -0.042303715 0.22065872
0000f0 cd 33 ae bd bc c2 62 3d 1d 71 72 3d 8f 68 1e 3d
       -0.08505974 0.055361494 0.059189904 0.038673934
000100 c7 79 9a bd 60 65 31 3d 94 94 2d 3d 94 6c ff bd
       -0.075427584 0.04330957 0.042378023 -0.124718815
000110 79 6c 03 3c 73 2c 2d be 2b de 28 be 21 2f 0d be
       0.008021467 -0.16911487 -0.16491 -0.1378751
000120 7b a5 13 be a0 eb 03 be 97 03 f8 bd 70 be 0b be
       -0.14418595 -0.12882853 -0.1211006 -0.13646865
000130 c2 3e 1b bc 52 08 06 be 18 c8 bb bc 59 32 a6 bd
       -0.009475412 -0.13089111 -0.02292256 -0.08115072
000140 24 66 72 3d c5 4a bc bd 0b e7 b6 b9 3a 4a fd bc
       0.05917944 -0.09193949 -0.00034885886 -0.030919183
000150 62 53 ac 3d d2 ac dc bd a4 50 f2 3d 49 e7 b0 bd
       0.084143415 -0.1077515 0.11831787 -0.08637864
000160 70 11 91 3d c4 4e 56 be f7 3d 32 3d f2 44 cd 3b
       0.07083404 -0.20928484 0.043516126 0.0062643224
000170 75 11 a3 bd bd 11 b4 3d 10 23 c4 3d 9f cf 69 bc
       -0.07962314 0.08792446 0.09577 -0.014270692
000180 08 74 15 be 26 60 84 3d 0d 06 25 bc c5 5c 3e bd
       -0.14595044 0.06463651 -0.010072243 -0.04647519
000190 cf 20 6c bd 34 f2 3b 3d b8 50 dc bd 98 14 2c be
       -0.057648476 0.04588528 -0.107575834 -0.16804731
0001a0 77 d7 fa 3b 4b fe 09 be d4 9c ea 3d 1d ce c7 bd
       0.00765508 -0.13475911 0.11455694 -0.0975611
0001b0 2b 35 0a be 1c 72 ce 3c d0 44 81 3d e9 90 64 3d
       -0.13496844 0.025200896 0.06311953 0.05580226
0001c0 37 c8 70 3d 3d 11 5c 3d 9a db f8 bd ca 88 49 be
       0.05878469 0.053727377 -0.12151261 -0.19681087
0001d0 89 c9 d4 bd 73 b4 26 be 96 43 e5 3d 8d 7b fc 3d
       -0.10390002 -0.16279773 0.111945316 0.12328253
0001e0 aa bb 1d 3c 32 25 fa bd 18 a7 d5 bd a9 34 86 3e
       0.009627262 -0.12214126 -0.10432261 0.26212052
0001f0 22 2b 81 bd 38 b5 cc 3d 32 88 21 be b5 2d 90 bd
       -0.06307055 0.09995502 -0.1577461 -0.07039968
000200 95 00 07 bc 15 be b4 bd 28 3a f0 bd 83 f9 71 3c
       -0.008239885 -0.08825318 -0.117298424 0.014768961
000210 97 6b f1 bd cc b1 17 3c 8d 66 b2 3d 4e 57 95 bd
       -0.11788099 0.009258699 0.08710966 -0.07292043
000220 d8 4e e1 bc c6 33 3c 3c 9f 97 83 3d 7b 88 09 3d
       -0.027503416 0.011486953 0.06425404 0.033577424
000230 06 3c 1d 3d e5 e6 16 be d4 3d 15 3e c5 6b 0e 3e
       0.03838732 -0.14736517 0.14574367 0.13908298
000240 09 00 8a 3d f9 05 c3 bd a8 3c 04 be d0 b3 dc bc
       0.06738288 -0.095226236 -0.12913764 -0.02694121
000250 62 ec 8f 3d e5 b7 9a 3d 39 e2 a4 bd 99 31 d2 bd
       0.07027508 0.07554606 -0.08050961 -0.10263366
000260 e3 b8 23 be e5 3a f4 3c e7 80 0e bd 76 56 f1 bc
       -0.15988497 0.02981324 -0.0347909 -0.029460173
000270 56 e2 0c 3c d9 3b af bc e6 28 30 bd 7f a0 17 3d
       0.008598885 -0.021390842 -0.043007754 0.037018295
000280 d9 4a 68 3d 4a 64 4c bb 2a 3a 85 bd 1c 87 39 bd
       0.056712005 -0.0031187707 -0.065052345 -0.045294866
000290 51 bb ba 3d 54 46 ba 3d 8a 87 10 bd 50 0a 1c bd
       0.09117759 0.09095445 -0.03528551 -0.038095772
0002a0 23 e8 26 bc be c5 00 be 85 5d be 3d 86 b1 39 bd
       -0.010187182 -0.12575433 0.09295181 -0.045335315
0002b0 1f e5 13 be 2b 6a c9 bd 4f 39 8b bd 19 34 8e bb
       -0.14442872 -0.09834703 -0.0679804 -0.0043397066
0002c0 d8 a0 b0 3d da 35 55 bd 78 83 57 3d ae fe 05 3d
       0.086244285 -0.05205331 0.052615613 0.032713585
0002d0 66 52 bd 3b 14 9c b4 bd fd c6 9b 3c 70 1b 00 be
       0.005777645 -0.08818832 0.019015783 -0.12510467
0002e0 38 a2 24 3d db 32 8a bd 44 f5 a7 bd 53 c1 db 3d
       0.040193766 -0.06747981 -0.082010776 0.10730233
0002f0 ad 8b 99 bd 17 0b 51 3d 93 96 d9 3c bd 5f f5 bc
       -0.07497344 0.051035967 0.026561057 -0.029952878
000300 93 65 c5 3d 99 90 d2 bd b2 7e 0b 3e 9c e2 25 bd
       0.09638514 -0.10281486 0.13622549 -0.040499315
000310 6b 1c d0 bc ed df 03 3c 35 7c 7f ba f3 d7 6a bd
       -0.025404176 0.008048994 -0.00097459863 -0.05733485
000320 9f 84 3b bd ca 47 0c 3d 5b 51 95 3d 45 cb 1d be
       -0.045780774 0.03424815 0.07290908 -0.15409572
000330 cc 46 cf bd 70 4b 59 bd 8a 47 4c bd 1c 56 d6 bd
       -0.10120925 -0.05305046 -0.049872912 -0.10465643
000340 9f b1 f8 3c bc 22 65 bc 0d c9 5c bd e5 02 39 bd
       0.030358134 -0.013985332 -0.053902674 -0.045168776
000350 e4 01 9b bd 48 a5 1e be a6 43 7f bd 97 a5 18 3d
       -0.0756872 -0.15492737 -0.062320374 0.037267294
000360 86 30 98 3d b2 20 46 be 97 84 4a bd 25 82 52 bd
       0.0743113 -0.1934841 -0.049442854 -0.051393647
000370 82 1c 46 bd d6 95 e6 bd 86 da ea 3d ac 41 78 3d
       -0.04836703 -0.11259048 0.11467461 0.060609505
000380 10 8d 01 be 63 b3 c5 bc b3 8b 5a 3c 68 bc 9e bd
       -0.12651467 -0.02413339 0.013338971 -0.077507794
000390 4c d2 d7 bd 61 6a f3 bd ed 15 0d be 17 1f 6c bb
       -0.10538158 -0.118855245 -0.13777895 -0.0036029273
0003a0 35 58 0f be 27 8d 8a 3c 59 81 1b be 71 84 d2 bd
       -0.13998492 0.01691301 -0.15186061 -0.102791674
0003b0 2d 17 13 be 31 b0 b3 bd e1 c9 71 bd 1f d0 1d be
       -0.1436431 -0.0877384 -0.059030417 -0.15411423
0003c0 0a 6b 09 bd 6a f1 cb bc 8e fd 4d be 8b 0e 2b be
       -0.033549346 -0.024895389 -0.20116255 -0.16704766
0003d0 37 81 20 be be b3 1a be 1d 73 7b 3d 78 e8 5a bc
       -0.15674292 -0.15107629 0.061389077 -0.013361089
0003e0 a5 95 d5 3c fb ec 28 be 93 b1 c5 bd 52 0e bf bc
       0.026072333 -0.16496651 -0.0965301 -0.023322258
0003f0 1d a3 08 be f6 88 14 be 40 c1 ca bd 2e 54 b8 3c
       -0.13343473 -0.14505371 -0.09900141 0.022501078

weight_ih_l0 f4 [512, 64]
000000 27 30 a1 3d bc d7 0c bd 51 b2 95 bd 29 de 5b 3d
       0.078705125 -0.034385428 -0.07309402 0.053678665
000010 7e f8 ec bc 42 f2 3c 3d 42 a2 27 bc c7 86 e1 bc
       -0.028927084 0.046129473 -0.010231556 -0.027530087
000020 3f b5 aa 3d 30 e6 5a bd 6c a2 71 bd 33 f7 a7 bd
       0.08335351 -0.05344218 -0.05899279 -0.082014464
000030 9e e4 50 bc da 1b 5d bd b0 d2 a7 3d d0 cd 05 bd
       -0.012749819 -0.05398164 0.08194482 -0.03266698
000040 7f b1 41 3d 35 b6 c1 3d 49 e0 00 be 9e 05 7a bc
       0.047288414 0.09458581 -0.12585558 -0.015260128
000050 51 ee 4a 3d 76 19 18 bd fc 34 35 be b7 7e bf bd
       0.049543682 -0.037133656 -0.17695993 -0.09350341
000060 4d fa 26 bd 63 db d0 3c 5a b1 c7 bc 5d 85 00 3d
       -0.04076605 0.025495237 -0.02437656 0.031377185
000070 e7 ec 9b 3c a4 cb cd 3d fc 52 7f 3d 31 6f 18 3d
       0.019033862 0.10048607 0.062335 0.037215415
000080 da 2e 23 bd 21 68 d1 bd ad ae 5b 3a 38 e7 f8 3c
       -0.039839603 -0.10224939 0.0008380216 0.030383691
000090 f1 f8 13 3e ab 95 a9 bd 1b b0 c0 bd ed cb b7 3d
       0.14450432 -0.082805 -0.094085895 0.08974443
0000a0 4b 01 b4 3d b1 24 38 3d 1c be a0 ba d6 e6 59 3d
       0.08789309 0.044956867 -0.0012263688 0.053198658
0000b0 c6 cc 5e 3d 66 0f d7 3b ff 8d be bd 32 6b eb bb
       0.054394506 0.006563115 -0.09304427 -0.0071844095
0000c0 db 76 02 3d 58 dc 1f bc 7c d1 70 bd 13 13 31 3d
       0.03185163 -0.009757124 -0.05879353 0.04323108
0000d0 11 f7 30 3d f9 08 99 bb c9 cd 2f bd a4 d1 7a 3c
       0.04320437 -0.004670259 -0.04292086 0.015308771
0000e0 86 3c 0d bd 38 5b dd 3c d0 d9 f5 3c ea bf 1a 3d
       -0.034481548 0.027021036 0.030011088 0.03778068
0000f0 c6 e1 04 bd 8e f1 94 3d 14 77 50 bd c7 55 f6 3c
       -0.032441877 0.072726354 -0.05089481 0.030070199
000100 9c 19 ff 3d ad c1 53 bd e7 89 c0 bd 5f ac 30 bd
       0.124560565 -0.051698375 -0.09401303 -0.043133136
000110 62 27 68 bd 1f e4 8b 3d 70 30 6d 3d ee a1 23 3d
       -0.056678183 0.0683062 0.05790752 0.03994935
000120 a3 dc 5c 3d 3f 4d e5 3d 76 d9 83 bd 21 40 f9 3c
       0.053921353 0.11196374 -0.06437962 0.030426087
000130 1b 25 7b 3d 2d f6 99 bd b3 b1 20 bd fc 4a 68 3c
       0.061314683 -0.075176574 -0.039231967 0.014178034
000140 70 20 d8 3d ad 52 00 3e e5 c0 15 bd e4 95 54 bd
       0.10553062 0.12531538 -0.03656091 -0.05190076
000150 29 ba 7a 3d 29 ac e6 bc 19 76 1e be f7 35 00 3c
       0.061212692 -0.028158264 -0.15474738 0.007825366
000160 9c 15 ee bc 9a c0 51 bc 12 1e 68 bd 88 89 71 b6
       -0.029063039 -0.012802267 -0.056669302 -3.5991852e-06
000170 ab 18 3c 3d e5 49 a3 bc 12 20 98 bc d9 a5 89 3d
       0.045921963 -0.019932697 -0.01856998 0.06721086
000180 3f f0 ea bc cc 77 f6 bd 37 6f 22 3d 28 78 2b bc
       -0.028679011 -0.12034568 0.039656844 -0.010465659
000190 06 94 36 3e 02 f6 d2 bc 35 57 f0 bd 54 f6 dd 3d
       0.17829904 -0.025752071 -0.117353834 0.10837999
0001a0 94 13 dc 3d 8b 08 4a 3d 7b 32 04 bc 08 6a 0c 3d
       0.10745922 0.049324553 -0.008068676 0.034280807
0001b0 1e ee 40 3d 9a 7e 1f be 5f 4d 21 bd c3 9d b2 ba
       0.047102086 -0.15575638 -0.039380427 -0.0013627339
0001c0 91 e5 86 bd fe 31 ca bd 78 e5 8d bc 56 aa 5b 3d
       -0.06586755 -0.098728165 -0.017321333 0.053629242
0001d0 70 a8 53 bd 9c e5 59 3d f1 75 85 3d 06 a8 db 3d
       -0.051674306 0.05319749 0.06516636 0.10725407
0001e0 5a 0c 0e bc d6 43 db bc a4 d0 7a bd 82 c9 2f 3c
       -0.008669937 -0.026765745 -0.06123413 0.010729196
0001f0 ab 16 89 3d df 3b 03 bd 8d df 62 bd 16 57 dd 3c
       0.06693777 -0.03203952 -0.055388976 0.027019065
000200 e4 6a b4 bd 03 58 55 3d 7a df b6 3d b9 ae 78 3d
       -0.0880945 0.052085888 0.089293435 0.060713504
000210 a3 41 46 ba 74 7b 84 bd 91 b8 1e bd e5 8a c6 3d
       -0.0007562881 -0.06468859 -0.038750235 0.09694461
000220 ef 69 bc bc 2e ce c9 3d 18 b4 0d 3c db 8b ba bd
       -0.022999732 0.09853779 0.008648895 -0.091087066
000230 9a e6 95 bb 7a e3 0e bd 71 1d 15 bc fa 9e b2 3d
       -0.004574609 -0.034884907 -0.009101258 0.087217286
000240 9a 34 d0 3d f0 3b 92 bd f2 c2 ae bd 48 15 68 bd
       0.10166283 -0.071403384 -0.085332766 -0.05666092
000250 65 f6 d5 3d 45 31 af bb 9a 03 3c bc 74 dd ed bc
       0.10447387 -0.0053464496 -0.011475468 -0.029036261
000260 2a 49 33 bb 4e 82 c8 ba 69 45 9f 3c 4c 84 6d 3d
       -0.0027356842 -0.0015297623 0.019442277 0.057987496
000270 03 ac d9 bc 28 12 12 be d9 52 ac 3c 8a c2 59 bd
       -0.02657128 -0.14264739 0.021035599 -0.053164043
000280 b9 6f 06 3e ac 44 04 be 52 ed 8c 3d e0 30 5e bc
       0.13128556 -0.12916821 0.06881203 -0.013561457
000290 40 52 11 3d 40 6b 6f bd bb 91 53 3d 67 17 6d bd
       0.03547883 -0.05845189 0.05165265 -0.057883646
0002a0 7b c1 77 bb dc 24 f6 3c 97 6a 53 bd 42 b1 3e bd
       -0.0037804532 0.030046873 -0.051615324 -0.046555765
0002b0 c9 31 33 3d e8 46 13 bd e6 97 17 bd 4b 4d 72 bd
       0.04374865 -0.035956293 -0.037010096 -0.059155744
0002c0 cf 04 f0 3d 87 0a a1 bd b6 14 9e 3d f8 7e bf 3d
       0.11719667 -0.07863336 0.07718794 0.09350389
0002d0 f6 54 c2 bd 93 b8 e9 3d 7c 0c 36 be e0 48 b6 3d
       -0.09488861 0.11412158 -0.177782 0.089006186
0002e0 58 9d fb bd a3 42 6c bc 58 34 75 3d 42 7c e7 3c
       -0.1228587 -0.014420184 0.059864372 0.028257493
0002f0 2f 4f 1c bd 16 69 1b bd e8 6f b5 3d f5 3b 15 bd
       -0.038161453 -0.037942015 0.08859235 -0.036434133
000300 76 6f 86 3c cd ad 38 bd 6c 3e a6 3c a9 ab 8c 3d
       0.01641057 -0.045087624 0.020293437 0.06868679
000310 e1 a0 14 3d ea 03 31 3d 92 54 4a bd 69 70 5a bd
       0.03628624 0.043216623 -0.04939706 -0.05332986
000320 12 9e 14 bd 36 ab c7 3d ab 36 c2 bd 1d 67 58 3d
       -0.03628356 0.09749453 -0.09483083 0.05283271
000330 fd 37 7c 3d 63 c1 28 bd 11 32 74 3c 31 d2 65 bc
       0.061576832 -0.041200053 0.014904515 -0.014027164
000340 b9 56 b0 bc 23 06 1c 3d 14 95 82 bd 32 70 a0 3d
       -0.021525728 0.03809179 -0.06376091 0.078338996
000350 08 41 9a 3d a0 e5 9b bd b0 86 61 bc d3 40 cc bd
       0.07531935 -0.07612157 -0.013765022 -0.09973302
000360 5f 11 a1 bd 28 63 92 bd 08 53 aa 3d 74 71 19 3d
       -0.078646414 -0.07147819 0.08316618 0.037461713
000370 7d de 60 3d b8 6b 32 bd 31 de ae 3d 79 ba 98 bd
       0.05489968 -0.04355976 0.085384734 -0.07457442
000380 43 bf 9d 3d 9b 41 00 bd 3d 16 ce 3c a0 d2 60 3d
       0.07702496 -0.031312566 0.025157088 0.054888368
000390 7a 83 7b 3d 86 72 c1 3c 5c 2b 7b 3b c5 be 8d 3d
       0.061404683 0.02361418 0.0038325405 0.06921152
0003a0 da 08 aa 3d c1 b1 1e 3d d8 14 1d 3c e0 a4 a0 bd
       0.083024696 0.038743738 0.009587489 -0.078439474
0003b0 a9 f8 c4 bd 16 2a ca 3a a1 d0 bf 3d 1a d6 c0 bc
       -0.09617741 0.001542392 0.09365965 -0.023539592
0003c0 5f 69 71 3d ee 03 0f bd 26 81 4e bd 68 68 8e 3d
       0.05893838 -0.034915857 -0.050416134 0.06953508
0003d0 f3 27 58 3d 09 0b 1c 3d 8f 5e d5 bc 59 f0 0a 3d
       0.052772474 0.03809646 -0.026046066 0.03392062
0003e0 2c 1b 5d bc a2 a9 5c bd 41 aa 7b bd 51 93 ba 3c
       -0.013495248 -0.053872712 -0.061441664 0.022775324
0003f0 88 15 73 3c 46 92 e3 3c 00 9a 68 3d 15 bf df 3d
       0.014836676 0.02777971 0.05678749 0.10925118

weight_hh_l0 f4 [512, 128]
000000 50 1b 9f bb c8 ab 97 3d ee 0f 44 3d 64 9c b2 bb
       -0.004855551 0.074058115 0.047866754 -0.005450772
000010 1a 35 95 3d b3 5b e7 3d 24 4a f7 3c 64 75 8d bd
       0.07285519 0.11296787 0.03018672 -0.06907156
000020 da 0c ae 3c ee 0b 68 3d dc 74 13 bd 4b 86 e2 bd
       0.021246362 0.056652002 -0.036000118 -0.110607706
000030 39 b8 43 3d 69 d0 07 3d 1a 68 a3 3c 99 a0 72 bc
       0.04778311 0.03315774 0.0199471 -0.014808797
000040 b4 db b5 bc 80 aa 04 bd 2d bd fd ba 8e fb b6 bd
       -0.02219949 -0.032389164 -0.0019358747 -0.08934699
000050 13 ad 4b bd 4d 2e 02 bc 43 73 a2 bb 25 7c 5f bd
       -0.049725603 -0.007945609 -0.004957588 -0.054561753
000060 2a 7d 77 3b 6e bf 7c bd 0d ea 42 3b 98 be f7 3c
       0.0037763813 -0.061706 0.0029741556 0.03024225
000070 57 57 ee 3b e9 79 80 3c 53 66 a6 3c 7b 23 06 bd
       0.0072735953 0.015683131 0.020312464 -0.03274868
000080 8b 6a 9b bd 04 18 aa 3d a9 05 73 3d db e3 87 3b
       -0.07588681 0.08305362 0.05933157 0.0041470355
000090 58 15 b5 bb 9f bd ea bd 91 5c 97 bc 5a 44 7d 3d
       -0.005526226 -0.114619486 -0.018476756 0.061832763
0000a0 e4 2b 45 bd a9 98 6a bd db c0 c1 bc 91 43 65 bd
       -0.04813756 -0.057274494 -0.023651531 -0.05597264
0000b0 b6 d7 0e 3d ff a0 77 bd a1 6a 95 bd f3 4b d9 bd
       0.034873687 -0.060456272 -0.072957285 -0.10610189
0000c0 c4 59 c2 bd 51 5b 0c 3d 40 c4 d7 3b 34 1e 9d 3d
       -0.09489778 0.034266774 0.006584674 0.076717764
0000d0 5a 27 d7 bd 58 b1 87 bc ff ba d7 bd 59 26 99 bc
       -0.105055526 -0.016564056 -0.105337135 -0.018695043
0000e0 96 d0 4a 3d fe 90 5f 3c 1e eb d8 3d 2e 3b fa 3c
       0.04951533 0.013645409 0.1059172 0.030545797
0000f0 9e 9f 5a bd 57 88 8a 3d 31 8b b5 bd 3f 37 7b 3d
       -0.05337488 0.06764286 -0.08864439 0.061331984
000100 45 53 42 bd 88 38 bb 3d c2 be 4d 3c c3 e1 2f bd
       -0.047442693 0.09141642 0.012557687 -0.042939913
000110 43 c4 5c bd 76 0f 79 3d b7 f4 f9 bc 69 02 a4 3d
       -0.053898107 0.06080576 -0.030512197 0.08008272
000120 21 c8 7d 3d 3f 7b 10 3d b1 a1 a6 3d 42 03 af bd
       0.061958436 0.035273787 0.08136309 -0.08545543
000130 1f 23 53 bd d5 64 65 3d 01 f8 8d 3d b4 aa dc bb
       -0.051547166 0.056004364 0.069320686 -0.0067342166
000140 55 9f e9 3c 68 bd 40 bd 49 04 54 3c 8c 08 9b bd
       0.028518358 -0.047055632 0.012940475 -0.075699896
000150 5e 3e 69 3b aa 21 de bd 34 59 a3 3c 04 5d 38 bd
       0.0035590152 -0.10846265 0.019939996 -0.04501058
000160 3a 77 17 bd f8 96 8b 3d d8 65 44 3d dd 96 43 3d
       -0.036978938 0.068159044 0.04794869 0.047751296
000170 67 b5 a9 bd 93 19 ad 3d d4 da 95 bd 80 91 55 bd
       -0.08286553 0.084521435 -0.07317129 -0.052140713
000180 6f 01 c4 3d 0d d8 c5 3d 6b 87 c0 bb 52 88 87 3d
       0.09570586 0.09660349 -0.005875518 0.06617798
000190 50 72 be 3d b0 26 98 3d 58 ad 63 3c f3 fb d1 3b
       0.09299147 0.07429254 0.013896309 0.0064082085
0001a0 0a 6d ca 3d 9b 23 ea 3a fd a1 04 3d 69 cb 32 bc
       0.09884079 0.0017863394 0.032381047 -0.010912755
0001b0 df fd 28 bc a0 7d 6b 3d 18 66 8a bd 21 7b 6f 3d
       -0.010314434 0.057492852 -0.06757754 0.058467034
0001c0 00 5e 24 3d 19 19 3a bd 33 62 7c bd da 6c 8d 3d
       0.040128708 -0.04543409 -0.061617088 0.069055274
0001d0 ea 1a f0 bc 25 bd e2 3c 1e d3 94 bd 9f c7 24 3d
       -0.029309709 0.027678082 -0.0726683 0.040229436
0001e0 88 50 3e bc 49 93 af bd c5 15 bd 3d 27 2e f8 b9
       -0.01161588 -0.08573014 0.09232668 -0.00047336632
0001f0 21 50 3d bd 3b 71 89 3d 64 7d ad bc 8b 3a e0 3d
       -0.046218995 0.0671105 -0.021177955 0.10948666
000200 e8 2c 81 3d 6b b4 78 3c 1b 2a 55 3d f7 85 da bc
       0.06307393 0.015179734 0.052042108 -0.026675208
000210 86 9f df 3c b4 8f a5 3d f2 ef 04 bd 9a 54 94 3d
       0.027297746 0.0808405 -0.032455392 0.07242699
000220 3c 85 12 bd 13 a0 88 bd 68 c5 d7 3d 7c 0a b8 bd
       -0.035771593 -0.06671157 0.10535699 -0.08986375
000230 5d aa 99 3d bd 66 24 3d 28 2f a4 3d a7 59 7a ba
       0.07503197 0.04013704 0.08016807 -0.00095501024
000240 23 87 59 3b 47 b9 37 3d eb 6d 7f 3d 3b cb 71 3d
       0.003319212 0.04485443 0.062360685 0.059031706
000250 38 0f 7a bd c9 2f 73 3d 93 d9 4a bc 4f 47 a3 3c
       -0.06104967 0.059371743 -0.012380975 0.019931464
000260 6f f0 10 3d 44 cc ab 3d 57 cb ab bc 26 f3 24 bd
       0.035385545 0.0838857 -0.020970983 -0.040270947
000270 47 b7 06 3d 99 83 11 bd 3d 4b 23 3d f7 0b 4e bc
       0.03288963 -0.035525892 0.039866675 -0.012576095
000280 23 11 c4 bd c8 de a1 3d b3 6e a5 bc 1a f2 8d 3c
       -0.09573581 0.0790382 -0.020194387 0.017327357
000290 f6 71 c5 3c a2 a7 41 3d 9c 67 24 bd 2c ca 45 bd
       0.024102192 0.047279008 -0.040137872 -0.04828851
0002a0 23 74 69 3d 49 b5 5a bd d6 87 cb bc 2c b4 55 bd
       0.056995522 -0.053395543 -0.024845045 -0.05217378
0002b0 73 9b 08 3d 57 6c 8c bd 11 4d 8b bd 28 49 e9 3c
       0.033351373 -0.06856602 -0.068018086 0.028477266
0002c0 45 91 d8 3a da 06 07 bc 7c 65 34 bc f3 ff 44 3d
       0.0016522786 -0.00824138 -0.011010524 0.048095655
0002d0 a1 95 c7 3c d9 ac b8 bc 4e 83 5e bd aa 95 ff bc
       0.02436334 -0.022543358 -0.05432444 -0.031199295
0002e0 fa d9 81 3d ea dd ad 3d f9 bb c1 bc 23 74 e4 bd
       0.06340404 0.084895924 -0.023649203 -0.11154964
0002f0 c6 93 8c bc 1e c2 4d 3d ef 34 68 bc ed 27 7a 3d
       -0.017160308 0.050233953 -0.014172777 0.061073232
000300 3a 75 d0 3d a4 70 73 3d 23 f3 3e 3c 2c f1 88 3d
       0.10178609 0.059433594 0.011654648 0.06686625
000310 81 fd 44 bc f4 ec c1 bd 67 f0 6e 3d 4d 93 5f bd
       -0.012023331 -0.09469023 0.058334734 -0.054583836
000320 c6 46 2d 3d b0 a4 a2 3d b6 85 91 bd eb 57 2b 3d
       0.042303823 0.07941568 -0.071055815 0.041831892
000330 89 2b 96 bd e0 f9 e7 3c 40 ee c4 3d d4 28 17 bd
       -0.073325224 0.028317392 0.09615755 -0.03690417
000340 00 d8 e1 bd 99 4b 83 bd 1d 98 54 bd 5a 01 9c bd
       -0.11027527 -0.064109035 -0.05190288 -0.07617445
000350 cb 8f 3c bd e5 35 4c 3c 35 7d 7e 3d db 80 db 3b
       -0.04603557 0.012464021 0.062131125 0.0066987104
000360 a2 34 0e bc 2f f0 00 bd f6 6d a4 3c f7 ba 11 3d
       -0.008679541 -0.031479057 0.020071965 0.035578694
000370 f9 60 33 bd 21 af 81 bd ae 32 30 bd ca 18 a4 bd
       -0.043793652 -0.06332231 -0.043017082 -0.08012541
000380 99 91 24 bc 92 ca 1e 3c 13 47 7c 3b 8e d5 6e bd
       -0.010044479 0.009691851 0.0038494512 -0.05830913
000390 db 8a 3c bd 3f 40 1b bd fe 10 45 bd 04 11 f8 bc
       -0.04603086 -0.037903067 -0.04811191 -0.030281551
0003a0 30 3c a7 3d 19 b7 9e 3d ce 63 30 3c 3e 18 ca bd
       0.08165777 0.07749767 0.010765983 -0.09867905
0003b0 28 54 a3 3d f2 bc ad bd 83 c6 7a bc f2 76 89 3d
       0.07975036 -0.08483304 -0.015306118 0.0671214
0003c0 f4 ef 4d bd 70 2c 31 3c 09 f7 8c bd 8e e0 2b bc
       -0.050277665 0.010813817 -0.06883056 -0.01049055
0003d0 60 ce 6d 3d e9 c0 ae 3b 22 e1 15 bd fc e3 ba 3c
       0.058058143 0.0053330553 -0.036591657 0.02281379
0003e0 1f 4e 57 3d ec 55 06 bd c2 21 13 3d 21 c7 a2 3d
       0.052564736 -0.032796785 0.035920866 0.07948137
0003f0 ca b7 91 3c 6f 27 c4 3d 18 42 83 bd 51 6c 35 3d
       0.017787833 0.09577834 -0.06409091 0.04429275
